har_baseline_model.pth (torch, 152196 bytes, 8 tensors)

features.0.weight f4 [32, 6, 7]
00000000: 5eac 03be ae48 cf3d 9c52 6d3d 7f5b 4b3e
00000010: e16d cd3e 80fd 473e 6fb7 19bd 290b 01bf
00000020: 48ae c8be b659 08bf 2b8e d9be fff2 d9be
00000030: 7244 44be 43e9 55be 0acd c7be 9b16 92be
00000040: c229 a2be 6fa0 bcbe e11c e9bd fb52 80be
00000050: cd10 7e3d ceac 6cbe cbb6 c13d 7c6c 993c
00000060: 87fc 34bd 1cdf 1f3e 64fa 6e3c 2a01 803e
00000070: 5cae f2bd f766 cabc 92a7 c8bd 9996 973d
00000080: bbd3 babb 89ab 0939 f410 263e 18b1 b3be
00000090: e6a5 82bd e91a 1dbe 5396 fbbd c2c5 253e
000000a0: 3775 7f3e 272a c43e 5fcf ae3e b7b2 9d3d
000000b0: 4254 7c3e b559 663e 6327 913e 0e07 6b3e
000000c0: 2c34 d33e 918e 153e 05d6 e1bc 6afc 803e
000000d0: 08b5 d6bb 2539 b33e 3e73 323e 0173 df3d
000000e0: e11c 1cbe 90f0 25be 4769 a03c ffb9 883d
000000f0: 7513 b0bd b20a d63d e53e 2fbe 31b4 bdbc
00000100: c154 bf3d f6ee ab3d 0f85 513d fdcd 983d
00000110: a76e 9fbd d8b9 a63d bdaf 1bbe f916 b6bd
00000120: 5fa2 80bd e741 da3d 825c af3c 880a 583e
00000130: 05bd 3c3d 046d 80be 146a 99bd daee 4bbe
00000140: 9b48 17be 03aa 87be 9853 82bd 025b 953d
00000150: e254 0e3e 281a d33d 6f94 b63d edb7 98be
00000160: 762f 96be 80d1 c1be 2122 17bf cbf8 d1be
00000170: 216d 11bf c390 c4be 0f9c afbe f7f2 62be
00000180: e7c0 78be fdcc ba3d 1126 243f 57f7 273f
00000190: 9c9a a73e f9c2 873e cc1f ab3e fe29 273e
000001a0: a696 dbbd a1a4 dc3d ac16 893d 2adc 50be
000001b0: f9f1 0fbe d6dd 473d d468 3abe 6783 1e3d
000001c0: b065 96be 98ef 4cbe 7cd6 32bc 265c 5dbe
000001d0: f5e7 ccbd 37f6 45be bd37 c0bd b7e9 c3bd
000001e0: 0d50 7abe fe97 30be 234c 14be 2b4e 8fbe
000001f0: f563 0fbe e14d afbe 206a ae3e f8d7 a73e
00000200: 64c2 503e 4b74 d6be 8fa1 e5be a284 0bbf
00000210: dd1d 99be da37 58be 250d 5dbe a8fb 23be
00000220: 80d2 e7bb e7b0 38bd 79f2 153d 8bfa 05be
00000230: 620a 3b3e e46a 853e 3095 f33c dece 533c
00000240: 68bc c13d 4e90 1bbe 6e56 673d c05c 7a3d
00000250: 5460 fc3d f049 9dbd 1c6e 90bd 810b 1ebe
00000260: 4f58 25be 9e5d 47be 8397 503e c45d b43e
00000270: 9e2d 973e e16d 993e 8ca9 7d3e 3e0d 0b3d
00000280: b7e6 463e 781c e03d 902b 573e fd7f d13e
00000290: 4a7f e43e 5d24 f83e 20b1 9f3e f6d0 c83e
000002a0: 25d9 9d3d 5362 503e c034 723e 5a06 de3d
000002b0: 40fe 293e a4c3 babd a425 bfbc bfab 953e
000002c0: 9f27 b13e ed27 603e 2c4b 163d a920 d73d
000002d0: a50b d2bd 15ac a4bb 59b9 753d 042a 0d3e
000002e0: e179 0ebe 5c9a 68be a944 1fbc 9805 76bd
000002f0: d05c 0bbe f474 e63d 52cc aabc 1496 8d3d
00000300: 3c27 393e 8235 c53d 3f25 21bd 9f1b 9cbc
00000310: 3b21 683e ad6b c83c 7b98 41bd 11c3 023b
00000320: b1b4 6f3e d9d7 923e 5adb df3e 0d0a 86be
00000330: 3fd7 2cbe 4711 45be 7c8a 5ebe cd5a 7dbe
00000340: 2f97 5dbe 8df1 8cbe 2c80 e4bd eb4e 97bb
00000350: cee8 ed3d 8631 47be b770 42be 9c09 783d
00000360: 6e63 6d3e b9cc 02bf a5d6 19bf fdf2 83be
00000370: 2d11 a0be be9d 76be e075 07be b711 f1bd
00000380: b296 81be cb7d 67be 0698 7ebe 00b7 a0be
00000390: a979 92be b7a1 37be 92d0 abbe d398 e03c
000003a0: 55fd 353d 7dd4 05bc af97 8dbe 8984 a5be
000003b0: 35f9 39be 9001 f9bd c4f2 233e 8c57 443e
000003c0: d7dc fe3b 35a0 cfba 195f 3d3d 60f6 103e
000003d0: 3dec 4e3c 5aec f1be 8256 76be 3e80 fbbe
000003e0: 37ea f3be 2d29 6dbe 0153 06bf 19d4 dcbe
000003f0: 679e 6d3e 7283 2d3e 3275 883e 5bf3 f13d
-0.12858722 0.101212844 0.05794011 0.19859122 0.40122893 0.19530296 -0.03752845 -0.50407654
-0.39195466 -0.5326189 -0.42491278 -0.42568204 -0.19166735 -0.20889764 -0.3902362 -0.28532872
-0.31672484 -0.3684115 -0.11382461 -0.2506331 0.06202774 -0.23112795 0.09458693 0.018728487
-0.04418614 0.15612453 0.014586065 0.25000888 -0.11849663 -0.0247073 -0.097975865 0.07401771
-0.00570151 0.0001312924 0.16217405 -0.3509605 -0.06379299 -0.15342297 -0.122845314 0.1618872
0.24947058 0.3831341 0.34142587 0.07700103 0.24641517 0.22495158 0.28350362 0.2295191
0.4125074 0.14605166 -0.027567873 0.25192577 -0.0065523423 0.35004535 0.17426774 0.10910607
-0.15245391 -0.16205049 0.01958145 0.06676101 -0.08597461 0.10451259 -0.17113836 -0.023157211
0.093423374 0.083951876 0.051152285 0.07461164 -0.07784777 0.08140916 -0.15203758 -0.088911004
-0.0628097 0.10657101 0.021406416 0.21097767 0.0460787 -0.25083172 -0.07490936 -0.19915333
-0.1477379 -0.26496896 -0.063636005 0.07292749 0.13899568 0.10307723 0.0891503 -0.29827824
-0.29333085 -0.37855148 -0.5903645 -0.41010126 -0.5680714 -0.38391694 -0.3429875 -0.22162996
-0.24292336 0.0912113 0.64120585 0.65611786 0.32735145 0.2651594 0.33422697 0.16324612
-0.10722093 0.10773588 0.066937774 -0.20396486 -0.14057149 0.048795544 -0.18204051 0.038699534
-0.29374456 -0.20013273 -0.010915395 -0.21617183 -0.1000518 -0.19332205 -0.09385631 -0.09566062
-0.244446 -0.1724548 -0.14482169 -0.27989325 -0.14002974 -0.34239104 0.34065342 0.3278196
0.20386654 -0.418856 -0.44849822 -0.54499257 -0.29905596 -0.21115056 -0.21587045 -0.16013968
-0.007074654 -0.045090582 0.036608193 -0.13083856 0.1826568 0.26058114 0.029734224 0.012927739
0.09459764 -0.15191767 0.05647891 0.06112361 0.12323061 -0.07680118 -0.07052252 -0.15434076
-0.16146968 -0.19469306 0.20370297 0.35227787 0.2952699 0.29966643 0.24771708 0.033948176
0.19423948 0.1094293 0.21012712 0.4091796 0.44628364 0.48465243 0.31189823 0.39221925
0.07707433 0.20350008 0.23652935 0.10841055 0.16600895 -0.09119347 -0.023333378 0.29232594
0.3460054 0.2189023 0.036692783 0.10504276 -0.10256127 -0.0050253966 0.059991214 0.13785559
-0.1391368 -0.22715133 -0.00972096 -0.06006393 -0.13609624 0.11252776 -0.02084938 0.06913391
0.18081373 0.096293464 -0.03934216 -0.01905614 0.22668926 0.024465406 -0.047264557 0.0019952694
0.23408772 0.28680304 0.4372204 -0.26179543 -0.16878985 -0.19244872 -0.21732515 -0.24741669
-0.21639703 -0.2752804 -0.11157259 -0.004617562 0.116166696 -0.19452485 -0.1898831 0.06055604
0.2318246 -0.5109363 -0.60093147 -0.25771323 -0.31263104 -0.24083611 -0.1322856 -0.11770957
-0.25310284 -0.2260658 -0.2486268 -0.31389618 -0.28608444 -0.17932783 -0.33557564 0.027416622
0.04443105 -0.008168337 -0.27654788 -0.3232768 -0.18161471 -0.12158501 0.16010576 0.19174021
0.007777791 -0.0015840592 0.04623327 0.14156485 0.012629566 -0.47250634 -0.24056438 -0.4912128
-0.4763963 -0.23160239 -0.52470404 -0.43130568 0.23204957 0.16944674 0.26651913 0.118139945

features.0.bias f4 [32]
00000000: a1a2 5dbb 02dd 113e aaa9 fe38 2a67 8bbd
00000010: 2280 8a3d 9a26 773d 1810 e9ba 26ea 23be
00000020: 0628 843d 4e88 c2ba a080 1a3e 494e 37b9
00000030: d687 bebc feb5 98bb 8eb5 8ebd db97 3fbb
00000040: 824e a83d a764 983d aeb8 3e3d bd6d b13a
00000050: 032f 1d39 e793 3dbe 4faa 1abd 0ae0 c7bd
00000060: b119 2a3d 2169 36be 68b1 bcbb 208a b139
00000070: f95c e23d 915e 203e 1a92 dfbd db1f 373c
-0.0033818858 0.14244464 0.00012143266 -0.06806786 0.06762721 0.060339548 -0.0017781286 -0.1600729
0.06452946 -0.0014841647 0.15088129 -0.00017481403 -0.023258131 -0.004660367 -0.069682226 -0.00292348
0.08218099 0.07441073 0.046562843 0.0013536733 0.000149902 -0.18513452 -0.037760075 -0.09759529
0.041528407 -0.17813541 -0.005758453 0.00033862982 0.110528894 0.15661074 -0.109165385 0.0111770285

features.3.weight f4 [64, 32, 5]
00000000: e08e e13e 7375 a73e 83b9 ae3e 493b db3e
00000010: c85c 983e 7e4c a33a c2bd f2bc 2736 c73d
00000020: c8c0 2ebb 58ab 473d d368 96be 37e2 6dbe
00000030: bcd5 55be 6ba3 5ebe 3e61 96be db99 233d
00000040: f3e7 093e 1dc6 9f3c fe95 b7bb 2c7d 6bbd
00000050: a5cc 0abd a140 0ebc 978e 92bd d7f7 aa3c
00000060: b826 a5bd 0243 b63c ec67 15bc fdb1 9cba
00000070: 8103 cebd 1281 50be 5c7c c9be 1087 a6be
00000080: 0487 34be fb91 51be ecfd 1bbe a871 e7bc
00000090: 4f80 b0bd 77fb 95bd bfb1 f5bc 19e0 1bbd
000000a0: 4224 f6bd 984b babd 6d90 e0bd 9d34 acbd
000000b0: 79af 2cbd 78e2 14bd d2fb 3cbd 4946 01bd
000000c0: 4ce5 6c3d 6589 e43b 6fed d03d e7ef a03d
000000d0: 7d74 a43d 9ef8 8abd a5af a3bd 2354 c6be
000000e0: cdbf 95be e7b3 95be f7f1 9bbe d80b b1be
000000f0: 9a1c 043e 7cde 223e 9271 4c3e dc92 883e
00000100: ba10 293e 66ca 513d 2d8a 9ebc 3f79 d43d
00000110: a869 02bd efb8 22bd 94b8 0ebe f079 9bbd
00000120: 03df 20be eba3 06be a66b 9bbd 2598 4e3e
00000130: 23bf 753e 104c c93d 5bb3 f53d 41f3 fabc
00000140: ca0f 3a3d fa41 163e 9ba0 143e 44c9 583e
00000150: 5ebc 2e3e 635f ca3c 3e5b 49bd c41b d8bd
00000160: e27d 8fbd 1eb5 07be 1f5f f03c aaa1 9a3d
00000170: b349 be3b a17d dd3c 166a 103e c14f 883d
00000180: b719 c33d 9ee1 13bd a075 09be e057 0ebe
00000190: f9f7 443d c06c 243e 63e7 4b3e bde8 643e
000001a0: 87d9 073e 117f 3a3d b7bf bebd a9e5 f3bd
000001b0: 85ee 90bd 332e 9fbc 682c 543c 4651 e4bc
000001c0: 5093 603d b097 023d 3fa7 953d eb8a 603e
000001d0: 87fd 053e a67a 4c3e 8b84 dd3d 5adc 813e
000001e0: 0dae 353e 6e5f 703e 5126 523e c2fa 5b3e
000001f0: fb65 b63d a7c9 213e ae78 743e 0f86 2a3e
00000200: 15a6 0a3e 508e 093e 2a72 35ba 3861 0b3e
00000210: c97a 0e3d ceca d33d 862d 913d 3327 a63e
00000220: 03df ea3e d49f f33e 8031 cf3e 9644 fe3e
00000230: 7ebd c7bd db16 9ebd 1ed4 83bd 42e7 5e3c
00000240: 7e11 003e bb9f 1d3d b17e d3bc bc30 03bd
00000250: f6ee 48bd 5eab c23d 5f3e 0b3e 1020 9d3d
00000260: 5d2f bc3d 3b68 8a3d 8252 753e c1b9 5f3c
00000270: f872 9c3d 139e 6fbd 50fd c8bd c34d 20be
00000280: 950e aa3e b653 c53e 509e c63e 1028 e13e
00000290: 1ab1 933e 6d48 023c 943b 853d 2c1d d53d
000002a0: b5fd 873d 7a5f 82ba 445c ccbd caf4 ccbd
000002b0: ea3e 55be af46 bbbe ab5e f7be b0f0 c9be
000002c0: e99b 48be e560 2e3e 8d32 6d3e 829f 3b3e
000002d0: 795a 043e 3ae8 913d 5e55 76bc 3453 acbd
000002e0: e712 2bbc 88c9 ac3d a816 ba3d 6570 453b
000002f0: a71d febb 5c65 16be 18f2 d33d b653 ff3d
00000300: 9fa6 bf3d ec07 dd3d 26d6 3f3b 343c e8bc
00000310: 0cde 82bd 3b6a 21be cbf9 6dbe 78eb 83be
00000320: 9c15 c1bd 9ea9 64bd 4df2 a6bb 3892 1e3d
00000330: df98 1d3e 4bde c63d ac57 863d 3645 b93d
00000340: 3570 973d 831b 703d e8e6 803d b103 c53d
00000350: f62b c63d 53e9 2e3d ee60 953d b1cd eabe
00000360: 6e3b 04bf 8d1d e2be 1717 a0be 15ad 85be
00000370: 6c73 543e f090 933e a91f 163e 0844 343e
00000380: b05e b03d 90cf 4d3e eac2 113e e336 333e
00000390: 4c14 973d a874 db3c 0da8 78bd 0ff8 e4bd
000003a0: 6130 b6be 7b1a b0be c8d6 a1be 0c00 f1be
000003b0: e1c1 e7be 1031 bcbe 9c7d 87be a9a8 7fbe
000003c0: 876a b43d 4131 c33d b1db a43d 1678 e93d
000003d0: a7ab b43d 14c3 7c3d a60d f7bc 4977 c3bc
000003e0: b0a5 51bd 7fec 853d 03ea 94be 3ad2 82be
000003f0: 3762 13be e9f4 2ebd e1fc 993d f8d7 94bc
0.44054317 0.32706794 0.3412591 0.42818668 0.29758286 0.001245871 -0.0296315 0.097271256
-0.00266652 0.04874739 -0.2937685 -0.23230825 -0.20882314 -0.21742027 -0.29371065 0.03994165
0.13467388 0.019503647 -0.0056025973 -0.05749242 -0.03388657 -0.008682401 -0.07156103 0.020870132
-0.08064026 0.022248749 -0.009119015 -0.00119549 -0.10059262 -0.20361736 -0.3935269 -0.3252492
-0.1762963 -0.20465843 -0.15233582 -0.028252438 -0.08618223 -0.07323354 -0.029991983 -0.038055513
-0.120186344 -0.090964496 -0.10965047 -0.08408473 -0.04215953 -0.03634879 -0.046138592 -0.03156117
0.057835862 0.0069743865 0.10201537 0.07858258 0.08030031 -0.06785701 -0.07992486 -0.38736066
-0.29247895 -0.29238817 -0.30458042 -0.3457935 0.12901536 0.15905184 0.19965199 0.26674545
0.16510287 0.051218413 -0.019352997 0.10374688 -0.031839043 -0.039727148 -0.13937598 -0.07591617
-0.15710072 -0.13148467 -0.07588892 0.20175226 0.23998694 0.09828961 0.119971 -0.03063357
0.045425214 0.14673606 0.14514391 0.21170527 0.17064044 0.024703687 -0.04915928 -0.10552171
-0.07006432 -0.13252684 0.029342232 0.07550366 0.0058071255 0.027037444 0.14102969 0.06655837
0.09526389 -0.036103837 -0.13423777 -0.13900709 0.048088048 0.1605711 0.19912486 0.22354408
0.13266574 0.045531336 -0.093139105 -0.119090386 -0.07076744 -0.01943121 0.01295004 -0.027870785
0.05482799 0.03188294 0.0730729 0.21927993 0.13084994 0.19968662 0.10816296 0.25363427
0.17742176 0.23473904 0.20522429 0.21482375 0.0890617 0.1579958 0.2387416 0.16652702
0.13539918 0.13433194 -0.0006921614 0.13611305 0.034785066 0.10341416 0.07088761 0.32451782
0.4587327 0.47582877 0.40467453 0.49661702 -0.0975294 -0.07719203 -0.064369425 0.013604941
0.12506673 0.03848241 -0.025817247 -0.0320289 -0.049056016 0.09505342 0.13598011 0.07672131
0.09188721 0.06758162 0.23957255 0.013655127 0.07639116 -0.05850036 -0.098139405 -0.15654664
0.3321425 0.3854043 0.38792658 0.43975878 0.28846055 0.007951838 0.06505504 0.10405955
0.06640188 -0.0009946667 -0.09978536 -0.10007627 -0.20824781 -0.36577365 -0.48314413 -0.39441442
-0.19590725 0.1702915 0.23163815 0.18322566 0.12925138 0.07124372 -0.015035002 -0.08414307
-0.010441518 0.084368765 0.090863526 0.0030126807 -0.0077549997 -0.14687103 0.1034891 0.124671385
0.09357952 0.107925266 0.002927193 -0.02834902 -0.06390008 -0.1576318 -0.2323982 -0.25765586
-0.0942795 -0.055825822 -0.0050948025 0.038713664 0.15390347 0.09710368 0.06559691 0.09046404
0.07394449 0.058619987 0.06294042 0.09619845 0.09676354 0.042702984 0.072938785 -0.45860055
-0.5165318 -0.4416317 -0.31267616 -0.26108614 0.20747155 0.28821516 0.14660515 0.17604077
0.0861181 0.2009871 0.1423451 0.17501406 0.07376918 0.026789024 -0.06070714 -0.11180126
-0.35583785 -0.34395203 -0.31609178 -0.47070348 -0.45265105 -0.36756182 -0.2646302 -0.24966682
0.08809381 0.09530879 0.08049715 0.11399858 0.088218026 0.06170948 -0.030157875 -0.02386059
-0.051183403 0.06539249 -0.29084787 -0.25551015 -0.14392935 -0.042714033 0.07518936 -0.018169388

features.3.bias f4 [64]
00000000: 8a0d ae3c 81ed f1bc c675 0abe 83b0 d5bd
00000010: 62b0 afbd 4576 a9bd 4365 e4bd c41e 29be
00000020: d7f2 bcbd 9528 42bd 8dc9 3dbd ff3a 033e
00000030: d403 30be f862 e93c ed8a 413c 63d3 ae3d
00000040: 2569 eebb 4d90 033e bbbe 52bc 63f3 fbbb
00000050: e590 b83d 604b 15bd 3bac a93d 6c0a 0b3e
00000060: 7a9b 88bd 2304 b73c 3edc d13d f1b3 dd3c
00000070: 18c1 00be e846 19be 7301 bd3a 75bc c93d
00000080: a8e9 6cbd 8b53 6bbd 1147 043e 060b 30bb
00000090: cbbd c0bc b5d5 73bc 24d0 07be ad2e 93bc
000000a0: 0383 043e 06af 36bd f15e 0bbe c637 6e3c
000000b0: d811 1bbe 7127 073e 5a70 b5bd 7f7b b3bd
000000c0: 4b14 20bd 3686 853d d1d2 113e 90dc 91bd
000000d0: 9717 193d df8f 0dbd 4c35 60bd 544f f93d
000000e0: f606 55be 163b 173e eade 793c e1f6 6cbe
000000f0: d467 733d fda9 4bbd f680 143e 9161 a23b
0.02124669 -0.029532196 -0.1352149 -0.104340576 -0.08578564 -0.08274511 -0.11152127 -0.16515642
-0.092260055 -0.047401983 -0.046334792 0.12815474 -0.1718896 0.028489575 0.011812908 0.085364126
-0.007275718 0.12848015 -0.0128628565 -0.007688926 0.090120114 -0.036448836 0.082848035 0.13578194
-0.0667028 0.02234084 0.10247086 0.027063342 -0.1257366 -0.14968455 0.0014419988 0.098503985
-0.05784002 -0.05745272 0.12917735 -0.002686204 -0.023528 -0.014882495 -0.13262993 -0.017966593
0.12940602 -0.04460051 -0.13610436 0.014539665 -0.15143526 0.1319864 -0.0885932 -0.087637894
-0.039081853 0.06519739 0.14240576 -0.07122147 0.037376013 -0.034561034 -0.054738328 0.12173334
-0.20803437 0.14768633 0.015250901 -0.23141052 0.05942519 -0.04972266 0.1450232 0.0049554785

features.6.weight f4 [128, 64, 3]
00000000: 0674 92be 9596 84be ab1a bebe 4c10 9fbe
00000010: 08c1 5dbe baf2 a9be 6df1 163e 4803 033e
00000020: cdf1 2d3d 7fe1 f2bd d9c8 8fbd 04f8 8bbd
00000030: a2d7 60be 8ff3 2abe d8be 2ebe 8527 293e
00000040: 30a3 923e 9ecd 5b3e 32b7 323d 5ff1 17bc
00000050: 3003 c33c 90f8 c5be 3dd7 b5be 5f5a 9dbe
00000060: e51c caba b341 78bd ff7c 67bd 5662 343e
00000070: abf3 5e3e c3aa 733e 1133 a53e 4bf0 a13e
00000080: 6a87 653e 2c30 3bbd be90 d03c 5903 6ebd
00000090: a818 bebd 0f56 83bd 37e3 14be c919 8abd
000000a0: 6d24 c0bd a0c1 01be cd3e 443b 32bd c33c
000000b0: ec5b 0abd c43d 8dbd 5422 acbd c913 393c
000000c0: d38e 483b 4138 953d 1850 a53d f9d9 563c
000000d0: ea3c 1cbc 6b9b 1938 ba5d 7f3e 74de 923e
000000e0: 42ea a13e 567f 813e d957 633e a50a e03d
000000f0: d3d4 61bd 8217 c9bd 1ff4 cfbd 0f8e 0b3e
00000100: 0d86 043e df03 3d3e efa8 b7bc f324 3fbd
00000110: 6a63 173c f7b0 a63d 1ffc 7d3d 31f4 b53d
00000120: 1d4e 1b3e dfbe db3d eddf f13d 8b98 8dbd
00000130: 2952 1fbe 3fd5 e6bc 1846 9abd 2c40 a6bd
00000140: 9f3b a1bd 703e 6fbe 0340 5abe 23f2 4cbe
00000150: c0d4 6f3b cf72 9d3d 1469 b93d 0e37 323e
00000160: 8234 9a3d 3102 aa3d 23c2 43be db76 23be
00000170: 90e8 45be 675d df3d 6ae3 e53c c7af f93d
00000180: 5f90 56be a66f 43be 777a 50be dc30 a03d
00000190: eb2f ddbc 0108 ac3c e655 d63d 8d2c ac3d
000001a0: f964 233e afbf 263b cae2 8b3d f4fc b13d
000001b0: ed2e 703e eb16 813e 6774 2d3e 1b47 b0be
000001c0: 406e 88be 9e09 7fbe 40a3 8e3c 6f4d 6e3c
000001d0: 57a4 f53d a0f7 653e 82e5 743e beab 933e
000001e0: d3e6 7c3d 3e67 ae3d 818b 19bc 5190 363e
000001f0: ffed 4a3e 7971 663e 234a 41bd ea92 42bd
00000200: 35b8 f1bd 45f9 ec3d fa64 203e ffc6 173c
00000210: e29d c5be 44fc b8be f23d a9be 46c1 433d
00000220: b750 003e 32ea 8e3d 1de8 0b3e 4938 2a3e
00000230: 7d90 d73d 5204 4e3d d3e3 1a3d ce99 2fbd
00000240: cdbf 83be 0998 58be 2136 77be 3095 1c3d
00000250: 691e 0bbd 7bac 823b aaf2 083e 22ff b23d
00000260: ed87 f33d 3d95 b5be 06bb c9be 8ad1 d3be
00000270: d776 a53e 1fc4 963e d80a b33e 7d10 673e
00000280: 3f86 bb3e d807 ab3e 3d57 6c3e f647 843e
00000290: 1137 523e c257 18bc 38dc 493c 6e5c 0b3d
000002a0: e199 b9bd d4e3 13be 4777 aabd b3ce 373b
000002b0: 83a0 783c 2539 323d 15eb 333b 1f6e b7bd
000002c0: 257c 5fbd 5d56 023e b58c 243e 67fc 1e3e
000002d0: c410 cdbd a38e 16bd e0a3 d4bd 121b 3ebe
000002e0: b35c 5fbd 2e32 9fbd e80e d23d b551 533d
000002f0: a74a c53d 1ccf 52be 491f 38be d0ae 36be
00000300: e174 ab3d f93c 6e3d 1558 aa3d 3211 02be
00000310: 366a 47bd a54e b7bc f514 fa3d c1ad bbba
00000320: 717a 503d c257 943d 2ca2 cdbc 1c57 133d
00000330: 6dbc 10bd 3c32 8c3c 6ce5 dabc c451 9c3d
00000340: 1b7c c13c 2f6b 013d 4658 523e a93e 003e
00000350: b04c c23d a605 9a3e abe6 863e 0be0 4b3e
00000360: 2624 aa3c 9e7c fc3c a6b2 d83c 62d1 963d
00000370: e1e3 dfbc f5ad 983c b47d d33c 2465 efbc
00000380: 9544 c8bb fea4 ecbd ef08 0abe a1a7 2ebe
00000390: 12a3 2e3e e321 3a3e 2123 f73d b5d2 3b3e
000003a0: 4d7e 393e efbe 283e c5a6 b73d 9423 be3d
000003b0: 1646 163e 5789 9ebd 63f3 30bd 6a5d 04be
000003c0: a8d6 1b3c a87b 6f3d 238f 983d c4a1 cdbd
000003d0: 02ba 013b 4610 06bd b06a 293d 93cd 1a3d
000003e0: 4f85 173d aeb7 f5bc 3042 093d 56f1 0bba
000003f0: 2c00 39be 66f7 13be fc00 dabd 35b3 6b3d
-0.28604144 -0.25896135 -0.3712972 -0.3106712 -0.21655667 -0.33192998 0.14740534 0.1279422
0.042466927 -0.11859416 -0.070207305 -0.068344146 -0.21957257 -0.16694473 -0.17064989 0.16518982
0.28640127 0.21465155 0.04363174 -0.009273856 0.02380523 -0.386662 -0.35515776 -0.3073301
-0.0015419988 -0.06060953 -0.05651569 0.17615637 0.2177264 0.23795609 0.32265523 0.3162864
0.22414938 -0.045700237 0.025459643 -0.05810866 -0.092820466 -0.06412899 -0.145398 -0.067431994
-0.09381948 -0.12671518 0.0029944659 0.023893926 -0.03377907 -0.068965465 -0.08404985 0.011296221
0.0030602708 0.0728612 0.08071917 0.013113492 -0.009536007 3.6622787e-05 0.24938098 0.28685343
0.31624037 0.25292462 0.2220148 0.1093953 -0.055134606 -0.09818937 -0.10153984 0.1362841
0.12941761 0.18458508 -0.022419421 -0.046666097 0.009240011 0.08139222 0.06200802 0.088844664
0.15166517 0.10729765 0.118102886 -0.06913861 -0.15558685 -0.028177856 -0.075329006 -0.081177086
-0.078727 -0.23363662 -0.21313481 -0.20014243 0.0036595315 0.076879136 0.09053245 0.17403814
0.07529546 0.08301199 -0.19117026 -0.15963309 -0.19326997 0.10906487 0.028062541 0.1219173
-0.2095351 -0.19085559 -0.20359217 0.07821819 -0.027000388 0.02099991 0.104656026 0.08406935
0.15956487 0.0025443842 0.06830366 0.08690825 0.23455401 0.25212798 0.16938935 -0.3442925
-0.26646614 -0.24906012 0.017411828 0.014544829 0.11994236 0.22457743 0.23915675 0.28841966
0.06174357 0.08515786 -0.009371639 0.1782849 0.19817351 0.22504224 -0.047189843 -0.04750339
-0.11802713 0.11570982 0.1566352 0.009263753 -0.38597018 -0.36129963 -0.33055073 0.04779174
0.1253079 0.06978263 0.13662763 0.16623034 0.10525606 0.05029709 0.037814926 -0.04287129
-0.2573227 -0.21151747 -0.24141742 0.038228214 -0.03396455 0.0039878464 0.13373819 0.08740069
0.1189116 -0.35465422 -0.394005 -0.41370803 0.3231723 0.29446504 0.3496921 0.22564884
0.3662586 0.33404422 0.23080154 0.25836152 0.20528819 -0.009298267 0.012320571 0.034023695
-0.09062553 -0.14442378 -0.083235316 0.0028046786 0.015174988 0.04351153 0.0027453352 -0.08956551
-0.054561753 0.12728257 0.160693 0.15525971 -0.100129634 -0.036757123 -0.10382819 -0.18565014
-0.054531764 -0.07773243 0.102567494 0.051591594 0.096333794 -0.20586818 -0.17980684 -0.17840123
0.08371902 0.058163617 0.083175816 -0.12701872 -0.048685275 -0.022376368 0.122110285 -0.001431875
0.05089802 0.07243301 -0.025101744 0.035971746 -0.035335947 0.017113797 -0.026720725 0.07632783
0.023618748 0.03159636 0.20541486 0.12523903 0.09487283 0.30082434 0.2634786 0.19909684
0.02076919 0.03082114 0.026452374 0.07364155 -0.02733034 0.018637637 0.025816776 -0.029223032
-0.0061116912 -0.11554907 -0.1347997 -0.17056133 0.17054394 0.1817699 0.12067247 0.18342097
0.18114586 0.16479085 0.08967356 0.0928413 0.14675173 -0.07741039 -0.04320086 -0.1292626
0.009511627 0.058467537 0.07449176 -0.1004062 0.0019794707 -0.032730363 0.04136151 0.037793707
0.036992367 -0.029994812 0.033510387 -0.0005338391 -0.18066472 -0.14449844 -0.10644719 0.057543952

features.6.bias f4 [128]
00000000: f0b8 433b b737 d6bd 357a 8dbd 5155 95bd
00000010: bd57 2cbc 622e 07bd 7c1e 2cbd 7145 003e
00000020: e4ac 583e 5fff 1b3e 3365 afbd 23d7 61bd
00000030: 0e36 1d3e e779 083d a025 86bd a371 adbd
00000040: edf5 953c b532 d1bd d979 9c3d 2fd0 a7bd
00000050: 94a0 a3bd 9a40 053e 37e8 623d 51d8 0f3d
00000060: 9913 c6bc b1b5 9d3c 7683 b93c fac1 3dbd
00000070: 063a 97bc 9f7c 4abd 6351 a6bd 3ba5 ddbd
00000080: 1cf8 2dbd 4bae 13be 4738 efbc 8ddf b5bc
00000090: 2b88 f3bc 7e48 3c3d ff55 bcbd 0f77 e8bc
000000a0: 4056 ddbd 8342 2ebc 12d6 ca3d f240 0cbd
000000b0: 1ea2 1f3d a19c a33d 7e39 ab3b 4c95 733b
000000c0: cef1 8c3d b148 2a3d 4d07 34bd 6273 0a3e
000000d0: 0a66 1bbd f3f9 05be 8ccf d23d 30ab 8ebd
000000e0: a59e 05bd d6c7 dcbd 5967 123e 552d 8c3d
000000f0: e774 9d3d 28a6 aebc e9b2 80bd 2cce 343c
00000100: 1db9 f33d bdcd 1ebd ab55 ffbc 9c4b b93c
00000110: bb3b 97bd d823 98bd 347e 1b3e b166 8c3c
00000120: 9b0f 78bd c5c5 66bc f52e d6bd 653b 8abd
00000130: 4bae 733d 20d8 5cbd 9ee7 8cbd 564b 99bd
00000140: 8211 d83d 2bd0 73bd cba1 c1bd d02a 1ebd
00000150: 717d 32ba d1ab 433d 20de 43bd 96f7 f9bd
00000160: 6304 a8bb 080d c23c cf26 2d3e a1dc 1d3d
00000170: 35d9 253e 2bc1 f13d 0747 d1bb 81b1 ee3d
00000180: a077 053e 4abd f0bd 4ac6 f8bd 4d1f 6fbc
00000190: 99f6 db3c 01c0 20bd 4ad7 93bd af0f febd
000001a0: 3c65 b1bc ed0a 8bbd 5c77 4a3d 1480 653d
000001b0: 2898 503c b0bf 9ebd 6693 203c 0133 79bd
000001c0: 147a 1dbd 2821 85bb 4e88 eebd 6d1d 58bd
000001d0: 030b e33d c91f c03d d09a fa3d 4cdc df3d
000001e0: 9e27 91bb e888 f3bc a4c0 823d 5e74 143e
000001f0: 3024 c9bd a9de 423d 20a7 df3c dffe 5bbd
0.002986487 -0.104598455 -0.06908075 -0.072916634 -0.010518965 -0.03300322 -0.04202126 0.1252649
0.21159703 0.15234135 -0.08564224 -0.05513681 0.15352651 0.03331938 -0.06550145 -0.0846894
0.018305743 -0.1021475 0.07640428 -0.08194005 -0.07989612 0.13012925 0.05539724 0.035118405
-0.024179267 0.019251676 0.022645693 -0.04632757 -0.018460285 -0.049435254 -0.08120992 -0.10822531
-0.042472944 -0.14421956 -0.02920164 -0.022201324 -0.029728016 0.04596757 -0.0919609 -0.028377084
-0.108074665 -0.010635975 0.09904112 -0.034241624 0.038972966 0.07988859 0.0052253595 0.0037167845
0.06882058 0.04157323 -0.043952275 0.13520578 -0.03793911 -0.1308363 0.10293493 -0.06966245
-0.032622 -0.10780303 0.14297237 0.06844584 0.07688313 -0.021319464 -0.062841244 0.011035483
0.11900542 -0.038770426 -0.03116878 0.022619061 -0.073844396 -0.07428712 0.15184861 0.01713881
-0.060561758 -0.014085238 -0.10458175 -0.0674961 0.05949239 -0.05391705 -0.06880115 -0.07485072
0.10550214 -0.059524696 -0.09454688 -0.038615048 -0.00068088534 0.04777128 -0.047819257 -0.122054264
-0.005127476 0.023687854 0.16909336 0.038540486 0.16196139 0.11804422 -0.006386641 0.1165495
0.13033915 -0.11754854 -0.12147196 -0.014594865 0.026850985 -0.03924561 -0.072187975 -0.12405335
-0.021654718 -0.06789193 0.049430236 0.056030348 0.012731589 -0.07751405 0.0098007675 -0.060839657
-0.0384465 -0.0040627904 -0.11647092 -0.052762438 0.11086085 0.093810625 0.122365594 0.1093069
-0.0044297716 -0.029728368 0.063843995 0.14497516 -0.09821355 0.047575627 0.027301371 -0.05370986

calssifier.weight f4 [6, 128]
00000000: 1c86 da3c 8a71 1ebe 8f61 d23d 4112 b8bc
00000010: 5aff 073e d589 fd3c b3f4 2c3e 3fc8 25bf
00000020: 6bee 09bf 3548 063d 6467 ee3d 88eb 3abd
00000030: 5970 f8bd 4343 5f3c 9575 ebbc 51d4 84be
00000040: 0dd0 4ebd 9382 b6bc 9502 bdbc db08 07bd
00000050: c248 f63d c54c 16bf 1c84 a03d 8c63 32be
00000060: 5113 5cbd 4f18 9c3c 48e1 143d 6604 c7bb
00000070: 34e3 4e3d 7a2f a33b a0eb 8e3d daf0 7cbd
00000080: 078d 803d 2ee7 c9be 817f f5bd 9c59 23bd
00000090: 0547 3a3e b2eb 793d a365 0d3e 599e 0a3e
000000a0: 80fa 373c e21c 033e 6dea 24bd b69f 013e
000000b0: 8651 b1bd 1db3 b3be 35ec 9f3d dd93 cf3d
000000c0: e91c 063e 64f5 e43b 9abe 05be 40fb 0abf
000000d0: ee58 253d f132 a63d 4a6b 87bd 1e79 393d
000000e0: bd6f 86bb 18a7 a6be 6fad d8bb e508 51bd
000000f0: 90e2 b93d ece2 be3c a5a5 863d 6f36 f9be
00000100: fe9c 3cbd 6260 093d 0bf1 a4bd 6d84 153e
00000110: 2064 e03d 3971 723c 13b5 b4bc efa8 e8bd
00000120: 2df4 c6bc 6a9b c13d 0cd5 963c b57b 4bbd
00000130: 1f92 32bd 754c dd3c a833 fe3d 4837 733d
00000140: 1c7c 793c 8502 743d 35e9 c63c 23a9 843c
00000150: 9036 05bd 1e70 22be a179 14bd 1d22 37bb
00000160: b9f5 18bd c70e 843e 4165 fabe 097e c23d
00000170: 0684 f23c 801a 113c 191b 0a3e eb0b fc3d
00000180: 2eb0 ec3d 877e c83b ce9e e5bd 7fe7 0bbe
00000190: 0694 193e 43ed 5bbe 43a0 9f3d 1038 b5be
000001a0: d554 94bb 85f8 f13d f329 063e 21be f8bd
000001b0: 0082 06bd 3e9c 80bd a583 bfbd 1996 423b
000001c0: d908 613d 2bd6 04bb 8724 ed3c c497 b23d
000001d0: 51c8 2f3c 96e9 8fbe 8d1e c5be 0c6d 67bd
000001e0: 0e1c ffb9 1e34 183d c23b 66be 3f46 5d3d
000001f0: bc8e 9fbc 25dc 32be 8d5b ccbc 1505 6c3d
00000200: 2907 973d 17d1 b4ba 344c e3bc daaf 863d
00000210: ee2e c83d 3fc0 57bd 274f 4f3d 3b79 81bc
00000220: 14d6 4cbe 3e7a 6cbd 3e25 cd3c eedb 0abd
00000230: be5b 2a3d eab9 803b 07ae 2a3d 6d78 403d
00000240: 2c24 b83d a099 563d 3532 033e 985f ef3d
00000250: e389 05be cd1b f3bd 4a4b a4bc 7bf9 3a3d
00000260: 57af 8a3d e909 e03d b982 09be 307e 123e
00000270: 99e0 64bc 4c8d 77bc f6ea c33d bc50 0c3c
00000280: 735b 9fbd a4f1 e3bd 255d 1a3e 30db 673d
00000290: bd0a a7bd 7f6b 6bbe ea19 2abe b55a e83b
000002a0: 0861 d33d ff54 213c 8703 63be 4210 863d
000002b0: 7dc5 673e eb0d 4dbe 7072 363d a45e e73d
000002c0: 877c ba3d 422d 213e e423 a2bd 43b1 09be
000002d0: e805 52bd 5cd5 1a3d 64f9 f4bd f7c0 9b3d
000002e0: b2d1 89bd a18e 3dbd 71bb afbd 90ad abbd
000002f0: c4f2 12be a3b8 1f3c 80ee 71bd 1b76 e23d
00000300: a20d 08be d620 d03b 99e7 8cbb 2d6c 073d
00000310: 78a1 e4bc 6f5e 98bd 40f2 42bc 107a 7bbc
00000320: ffcf 26bd 3522 b73d a8cd 9e3c 34b8 113c
00000330: 6b24 a13d 32de a03c aca7 aabc 6d7a dd3d
00000340: ec2a 34be 9cc0 ef3b 30a2 ce3d df6a ca3c
00000350: 2e2e 83bd cf66 513e 10e1 a0bd f943 243d
00000360: 31a0 68bc 5274 d5bd f9c8 21be 37e6 41be
00000370: bc07 bfbc 2057 81be 60c0 0cbd 5f7d abbc
00000380: a487 54be 869a e03d 0d6b 153d 267d b23d
00000390: bc51 ea3c c173 02be e61d 28bd 9ea4 1cbe
000003a0: 7e2e 99bc faf5 c2bd db58 a43d 9c33 323d
000003b0: 3e34 ee3d 3b36 b4bd 62b4 753c 29f3 0bbe
000003c0: 69a2 67be ee33 823d 464f 0e3e ce67 5ebb
000003d0: bbe4 31bd 5bdc 5cbe f767 0dbe 54f3 dabd
000003e0: 8ed9 78bd 4d13 693b cfa9 273d 2b4b 30be
000003f0: 2e09 90bd c5fd 563e 3a16 803d a611 bebb
0.026675276 -0.15472999 0.10272514 -0.022469642 0.13281003 0.030949512 0.1689022 -0.64758676
-0.5387942 0.032783706 0.11640814 -0.045634776 -0.121308036 0.013626876 -0.02874259 -0.25943235
-0.05049138 -0.02227906 -0.02307252 -0.03296743 0.12025596 -0.5871089 0.07837698 -0.17420787
-0.05372936 0.01905456 0.036347657 -0.0060735224 0.050509647 0.004980025 0.06978536 -0.06175313
0.06276899 -0.3943419 -0.1198721 -0.03988038 0.18191154 0.061015792 0.13808303 0.13536967
0.011229157 0.12803987 -0.04026263 0.12658581 -0.086581275 -0.3509759 0.07808725 0.101356246
0.13096966 0.0069872607 -0.1306099 -0.5428963 0.040368013 0.08115185 -0.06612261 0.045281522
-0.0041026757 -0.32549357 -0.006612472 -0.051033873 0.090764165 0.023301564 0.06574563 -0.48674342
-0.046048157 0.033539183 -0.08053788 0.14601298 0.10956597 0.014797502 -0.022059 -0.113603465
-0.024286354 0.09453471 0.018412136 -0.049678523 -0.043596383 0.027013997 0.124121964 0.059378892
0.015227344 0.059572715 0.024281124 0.016193932 -0.032522738 -0.15863082 -0.036248807 -0.0027943917
-0.037343714 0.25792524 -0.48905376 0.094966955 0.02960397 0.008856416 0.134869 0.12306961
0.11557041 0.006118599 -0.1121193 -0.13662528 0.14997873 -0.21477227 0.07794239 -0.35394335
-0.0045267143 0.118149795 0.1310194 -0.12145639 -0.03283882 -0.06279801 -0.09351281 0.0029691516
0.05494008 -0.0020269256 0.028948082 0.08720353 0.0107289115 -0.281079 -0.3849987 -0.05650048
-0.00048658293 0.037159078 -0.22483733 0.05402207 -0.01947724 -0.17466791 -0.024945999 0.057622034
0.073744126 -0.0013795224 -0.027746297 0.0657651 0.09774576 -0.052673575 0.050612595 -0.015804878
-0.2000354 -0.057733767 0.025042173 -0.033901148 0.0415914 0.0039284127 0.04166987 0.046989847
0.08991274 0.052392602 0.12812121 0.11688155 -0.13040881 -0.11870537 -0.020055432 0.04564808
0.06771725 0.1093939 -0.13428773 0.14305949 -0.013969564 -0.015109371 0.095662996 0.00856417
-0.077811144 -0.11130074 0.15074594 0.056605518 -0.08156345 -0.22990225 -0.16611448 0.0070908912
0.103212416 0.009846925 -0.22169314 0.0654607 0.2263393 -0.2002484 0.04454273 0.11297348
0.09105783 0.1573992 -0.07917002 -0.13446526 -0.051275164 0.03780113 -0.1196163 0.076051645
-0.06729449 -0.0462786 -0.085806735 -0.08382714 -0.1435042 0.009748611 -0.059065342 0.11057683
-0.1328645 0.0063515706 -0.0043000695 0.03306215 -0.027909026 -0.07439887 -0.011898577 -0.015348926
-0.040725704 0.08942071 0.019385174 0.008894015 0.07868274 0.019637201 -0.020831905 0.108143665
-0.17594498 0.007316662 0.100895286 0.024709163 -0.064052925 0.20449375 -0.07855427 0.040103886
-0.014198349 -0.10422577 -0.15799321 -0.18935476 -0.023319118 -0.25261784 -0.03436315 -0.020933805
-0.20754868 0.10966973 0.036479045 0.087152764 0.028603427 -0.12739469 -0.04104414 -0.15297171
-0.018698927 -0.095195726 0.0802476 0.04350625 0.11631058 -0.08799406 0.01499662 -0.13666977
-0.22620548 0.06357561 0.13897428 -0.0033936384 -0.043431025 -0.21568434 -0.1380919 -0.106909424
-0.06075435 0.0035564483 0.040933426 -0.17216174 -0.07033001 0.20995243 0.062542394 -0.0058004437

calssifier.bias f4 [6]
00000000: dae4 29bd fa64 a0bd 1d87 a8bd d7f1 f83d
00000010: ac9d d63d c1b7 30bc
-0.041478015 -0.0783176 -0.08228896 0.12155502 0.10479292 -0.010785998
