har_multiscalehar_model.pth (torch, 471282 bytes, 12 tensors)

ms1.branches.0.0.weight f4 [32, 6, 3]
000000 14 f9 56 3e 14 d9 03 bd 95 88 17 3e 1d 8d 94 bd
       0.20993453 -0.032189444 0.14798196 -0.07253478
000010 91 66 f0 bd 90 cb 21 3e 21 13 0f 3c d2 d5 1f 3e
       -0.11738313 0.15800309 0.008732588 0.1560891
000020 14 80 db 3d a7 4e 41 3e f9 e4 f4 bd 09 f4 86 bb
       0.10717788 0.1887766 -0.119577356 -0.0041184467
000030 53 a7 3b 3c b6 d4 3c 3e fa 41 87 be b2 b1 f6 3d
       0.011453467 0.18440518 -0.26417524 0.120456114
000040 e6 8c 8a 3e 5f 61 96 bd ac 14 7e 3d 1e 3c 86 3d
       0.27060622 -0.07342791 0.062031433 0.06554435
000050 d0 16 fa 3e 55 ae f9 bd 9f d1 8b bd d9 2f 4e be
       0.4884553 -0.12191454 -0.068270914 -0.2013544
000060 b8 0c ec bd 8f 70 95 3d 99 81 47 bd 0b 7c 5c be
       -0.115258634 0.072968595 -0.04870758 -0.21531694
000070 ac 62 a4 bd 7d 04 89 be 53 6b 96 3d 7c f4 9c be
       -0.08026633 -0.26761237 0.07344689 -0.30655277
000080 4e 9f 1f be 26 b8 06 be 6c 7a 88 be 11 63 00 be
       -0.15588114 -0.13156185 -0.266559 -0.12537791
000090 d7 3c 92 3e 84 be f2 3d 35 f2 90 3e fb 13 1c 3d
       0.28562042 0.11852744 0.2830979 0.038104992
0000a0 34 3b 37 be cc 4b 07 be 61 74 ad bd a2 16 5b 3e
       -0.17893678 -0.13212508 -0.08469463 0.21395352
0000b0 bc 6a 77 3e 4a a9 82 3e f1 65 89 3e 2c e6 e8 bd
       0.2416181 0.25519782 0.26835588 -0.11372027
0000c0 dd 2c 9e 3d 33 7e a3 bc 33 8d 57 be 63 d4 d0 be
       0.07723401 -0.019957637 -0.21049957 -0.40787038
0000d0 fc 30 31 be b1 3a 3c bd 20 cb a7 bd cb 75 02 be
       -0.17303842 -0.04595441 -0.0819304 -0.12740247
0000e0 98 5c 98 3e 9c ff 6d 3e b1 5f 01 be 20 a1 48 3e
       0.29758143 0.23242038 -0.1263416 0.19592714
0000f0 95 a2 ac 3e bd 3e 91 3e 43 b7 9f 3e 39 30 c9 bd
       0.3371779 0.28368178 0.31194505 -0.09823651
000100 c6 36 3c 3e 72 ea 2e 3d d0 87 d3 3d 14 a0 ce bd
       0.1838027 0.042704053 0.103286386 -0.10089126
000110 72 41 af 3e c1 52 56 3e 18 3c 73 bd 43 eb ee bc
       0.34229618 0.20930006 -0.05938348 -0.029164916
000120 af 29 07 bf c5 aa e7 be 22 33 ca be d8 15 bd bd
       -0.5279798 -0.45247474 -0.39492136 -0.09232682
000130 41 92 93 bc 0f 57 a0 3d 7e 32 01 3e 45 ce 78 be
       -0.018014075 0.07829105 0.12616917 -0.24297436
000140 fe e3 e7 bd 88 a1 d7 3e ce 35 6f 3e 94 74 cb 3e
       -0.11322783 0.42115426 0.23360369 0.3973738
000150 2c 50 48 3e 87 c7 4d 3e d4 0c 6e 3e aa ef 27 be
       0.19561833 0.20095645 0.23247081 -0.16400018
000160 99 73 4c be 01 40 4f 3e 41 71 cc 3e 00 73 ef 3e
       -0.19965972 0.2023926 0.39930156 0.46767426
000170 d7 9c ce 3e da 9c 91 be 01 33 a8 bd d7 1c a9 3d
       0.40354034 -0.2843998 -0.08212853 0.08257454
000180 b6 15 4b 3e 83 7e 14 3e 96 41 9f bd 3c 48 8e bc
       0.19832501 0.14501385 -0.077761814 -0.017368428
000190 17 ab 84 3d 5e dc d8 bd 7b eb f1 bd 08 de 11 3e
       0.06477945 -0.10588907 -0.118124925 0.14244854
0001a0 65 22 55 3e 41 c8 c1 bc 15 ed 1d 3d 76 d7 9a bd
       0.20813902 -0.023655059 0.038556177 -0.07560627
0001b0 f0 03 91 3d 70 30 80 be 3a ee 35 be 80 98 e9 be
       0.07080829 -0.25036955 -0.17766657 -0.4562416
0001c0 f5 27 08 bf 5f e3 2a bf e3 56 ae be 39 68 ee be
       -0.5318597 -0.6675319 -0.34050664 -0.4656389
0001d0 7f f7 44 be ff 49 e8 3c a4 d7 2c be ad 70 9c be
       -0.19235037 0.028355597 -0.16879135 -0.30554715
0001e0 ef 63 b6 bd 15 e7 cf 3d 1c 9c 8c bd ce 70 e9 3d
       -0.089057796 0.10151497 -0.06865713 0.11398469
0001f0 cb 66 66 3d dd cd 2d be 6e 0e e9 3e cc 23 fb 3e
       0.056250375 -0.16973062 0.4551882 0.49050748
000200 a4 36 03 3f b6 e0 b8 bd d5 d7 61 bb 3c f6 b7 3d
       0.5125525 -0.09027235 -0.0034460921 0.08982512
000210 50 30 e1 3d 6e e5 15 be db d6 40 be 08 8a ce 3d
       0.10995543 -0.14638302 -0.18831961 0.10084921
000220 e3 a8 55 bd 1b b1 98 bd 98 d3 d0 3e 48 4b 1d 3e
       -0.052163016 -0.07455655 0.40786433 0.15360749
000230 6c ed af 3e d3 53 33 be e9 b2 4b bd 70 34 02 be
       0.34360826 -0.17512445 -0.04973117 -0.12715316
000240 37 88 88 3e 09 ad b0 3e 28 b1 5e 3d 80 de d3 be
       0.26666424 0.34507015 0.054368168 -0.41380692
000250 27 6c b9 be 5d 2c fe be 3f 0c 6b bd 94 1a a1 be
       -0.36215326 -0.49643221 -0.057384726 -0.3146559
000260 20 d1 83 be c4 58 5b 3c 32 d8 12 be af f5 3a be
       -0.25745487 0.013387863 -0.14340284 -0.18257783
000270 8a 86 89 be 56 42 87 3c fa 77 8a be 42 bd bb 3e
       -0.26860458 0.016511124 -0.2704466 0.3666783
000280 b4 5e 9e 3d 37 af ba 3e 72 36 cb bc c1 93 83 3e
       0.07732907 0.36461803 -0.024806235 0.25698665
000290 86 37 1b 3e f7 59 29 be d2 e0 a5 bc 82 ea 8f 3b
       0.151579 -0.16538225 -0.020248804 0.004391969
0002a0 7a 39 08 be 7e f6 6c bc 24 2c f7 3d 3e 60 3e 3e
       -0.13303176 -0.014463065 0.12068966 0.18591401
0002b0 f8 9f f5 3d 0b b1 d1 3e eb 8e 32 3d 73 1e 62 3e
       0.11993402 0.40955386 0.04359333 0.22081928
0002c0 0e 05 39 3d aa b0 08 be 6f ab a1 bc 84 ff 23 be
       0.045170836 -0.13348642 -0.019735066 -0.1601544
0002d0 27 e4 42 3e 99 4f 94 3d cd 04 3c be fb a8 9e bd
       0.19032346 0.072417445 -0.18361206 -0.07747074
0002e0 bd ec ee bd a0 bc b9 3d 19 31 1a be 50 32 aa 3c
       -0.11666248 0.090691805 -0.15057792 0.020775944
0002f0 4f 3b 85 3d 7a 3d ae 3e 2d 65 08 3e 28 1d 5e 3e
       0.06505453 0.34031278 0.13319845 0.2169081
000300 b8 06 bb 3d 26 b2 a1 3d d8 d1 7a 3e 66 7d e3 bd
       0.09132141 0.07895307 0.24494112 -0.11107902
000310 0b 4a 5d 3c a5 91 69 be 8b c9 92 3e 94 2b a7 3e
       0.013506423 -0.22809465 0.2866939 0.32650435
000320 5d 3d 75 3e 65 65 38 be 02 7c db bd e5 3d 26 3b
       0.2394919 -0.18007429 -0.10717012 0.0025366482
000330 7c a4 da 3c 8a 43 67 3e 76 ee 3a 3e 9a d6 8c 3e
       0.02668976 0.22584358 0.18255028 0.27507478
000340 b5 f1 a3 3e 9d ca 25 3e c0 9a 23 3e 0e b8 83 bc
       0.32020345 0.16190572 0.15977001 -0.016078975
000350 01 38 cf 3d 5b 12 9e 3d 52 85 81 be 51 55 d3 3d
       0.10118104 0.07718345 -0.25297028 0.10319007
000360 a6 4f c1 3e 40 a0 75 bb 97 9d c3 3c 9e 91 0a bf
       0.3775608 -0.003747955 0.023878856 -0.54128444
000370 ea 69 14 bf 75 f7 9c be 7f 93 99 3d aa 98 d0 3d
       -0.5797411 -0.30657545 0.07498836 0.10185368
000380 64 5f 3d bd 80 4a d6 bd 27 6e 5f be 41 74 87 3c
       -0.04623355 -0.104634285 -0.21819364 0.016534926
000390 a7 fe 96 be 7d f2 9c be db 22 85 3d 14 85 88 3e
       -0.2949116 -0.30653754 0.06500789 0.2666403
0003a0 1f 28 d3 3b 41 41 6c 3e fb 9a d6 bd b7 92 28 be
       0.006443992 0.23071767 -0.10478779 -0.16462217
0003b0 7b 2d 37 bd da 4d 0c 3e 24 81 bb bd 46 c6 7f 3e
       -0.044721108 0.13701573 -0.09155491 0.24977979
0003c0 56 42 6e 3e a4 f2 19 3e 99 a0 ee 3e c1 93 0f be
       0.23267493 0.15033966 0.466069 -0.14021207
0003d0 f9 2c 74 be c8 78 67 be 57 ba 88 be 5c df 79 be
       -0.2384528 -0.22604668 -0.26704666 -0.24401611
0003e0 e4 55 94 bd 90 35 59 bc 57 5a 39 3e b0 2d 6d 3e
       -0.07242945 -0.013257399 0.18100868 0.2316196
0003f0 9d b2 9f 3e f1 74 a1 3e 71 ad 54 3e 96 92 fd 3d
       0.3119096 0.31534532 0.20769288 0.12381475

ms1.branches.0.0.bias f4 [32]
000000 b6 6c 83 bb 17 b8 58 be 73 29 d1 bd a2 46 2d 3a
       -0.004010762 -0.21163975 -0.10212984 0.00066099514
000010 c2 3f 42 be a5 f1 8e bd ce dd 14 bc f7 69 25 bd
       -0.18969634 -0.06979684 -0.0090860855 -0.04038426
000020 6c 83 17 bc 81 ea 68 bc b9 25 7a bc 74 f9 c4 bd
       -0.009247642 -0.014216066 -0.015267783 -0.09617892
000030 b5 83 5a 3b 37 82 4f be 64 3d ef ba 11 e8 d1 bb
       0.0033342664 -0.20264517 -0.0018252549 -0.0064058383
000040 b2 af 15 bb c1 43 ed bb 32 ac e6 bd fb 30 62 3c
       -0.0022840318 -0.007240743 -0.112633124 0.013805623
000050 46 7e a5 bd 7d fb d3 bd d7 79 04 bc e4 60 eb bb
       -0.08080725 -0.10350702 -0.0080856895 -0.007183181
000060 e9 3f e6 ba b2 6f a3 bc 4f 71 d0 bb bb cc 4d be
       -0.0017566654 -0.019950721 -0.0063611637 -0.2009763
000070 7b c5 fc 3c 63 94 00 bb 9f 03 ec bc aa 36 f2 bb
       0.030855885 -0.0019619695 -0.02881032 -0.0073917704

ms1.branches.1.0.weight f4 [32, 6, 7]
000000 ed 1b 9a 3e 29 bf a0 3e a1 b8 92 3e 2e be 0f 3e
       0.3009943 0.31395844 0.28656486 0.14037392
000010 37 1c de bd 9e f0 8c be 97 7b e8 be 76 97 8a be
       -0.10845225 -0.27527326 -0.45406792 -0.2706868
000020 3d a7 35 be 4d c0 58 bb 99 ff 26 bd 95 cc a1 bd
       -0.17739578 -0.0033073605 -0.0407711 -0.07900349
000030 bb 21 41 3e a4 eb 54 3e 8e a3 62 bd c5 ec 55 bd
       0.18860523 0.20793015 -0.05533176 -0.052227754
000040 52 8f c8 bc 7d ba a0 3b 8d db 7d bd ce a3 6b 3e
       -0.024482403 0.0049050436 -0.061976958 0.23011705
000050 07 58 ce 3d 20 b0 2c be 78 32 b5 be 71 dc 13 be
       0.10075384 -0.16864061 -0.35390067 -0.1443956
000060 e3 94 91 be 54 2a 92 be 6d 81 0b be d4 61 ce bd
       -0.28433904 -0.2854792 -0.13623591 -0.10077253
000070 3f 88 54 3d 1e ee 99 3d 94 c4 c9 bd 13 03 d9 3d
       0.051887747 0.075161204 -0.098519474 0.105962895
000080 89 fa b3 3d d4 e8 0f 3d c1 0e c1 bd 1a 30 09 be
       0.0878802 0.03513415 -0.09426642 -0.13397256
000090 c1 d6 5c be dd 8e 7d bd 6e 45 2c be 1b 87 e3 3d
       -0.21566297 -0.061903823 -0.1682336 0.11109754
0000a0 ec 22 6a bd f1 6e 3f bd e2 d6 e2 3e 71 81 fe 3e
       -0.05716221 -0.04673666 0.44304568 0.4970813
0000b0 89 58 51 3e 79 a2 ef 3e 99 4f 48 3e 85 42 bd 3e
       0.2044393 0.46803644 0.19561614 0.36964813
0000c0 e8 a9 a5 3d e7 a7 c3 bd f2 7f 88 be 6c 44 cd 3c
       0.08089048 -0.09553509 -0.26660115 0.02505704
0000d0 19 92 12 bd 10 32 82 3e 3d e1 d6 3d 9d 40 2e 3e
       -0.03578386 0.2542882 0.104921795 0.17016836
0000e0 52 87 05 3d 52 05 c9 bd 21 3e 58 be 62 e1 78 bc
       0.032599755 -0.09815468 -0.2111745 -0.015190454
0000f0 67 c3 c8 bd 65 b8 e0 bc 52 5d 35 be fb f1 15 3d
       -0.09802895 -0.027431676 -0.1771138 0.036607724
000100 9f 45 dc bc a5 af 00 3e 03 06 2d 3e d7 5c 27 3d
       -0.026888667 0.12567003 0.16896825 0.040860023
000110 a9 5a e6 bc 68 35 7b b9 f2 42 23 bd 06 23 ba 3e
       -0.028119402 -0.0002395712 -0.039858766 0.36354846
000120 ec ed 4e 3d 99 5d 97 3e fd 50 3d 3e 83 3f 4c 3e
       0.05051987 0.29563597 0.18487926 0.19946103
000130 0c 1d 29 3e 49 b6 da 3d 89 d6 84 bc 46 fa 05 be
       0.16514987 0.106792994 -0.01621558 -0.13083753
000140 aa b5 c6 bd 86 87 7a bd 64 0b c4 bd 9b be af 3d
       -0.097026184 -0.0611644 -0.09572485 0.08581277
000150 c9 81 91 3e 07 d0 ae 3e c5 65 ca 3e 82 f7 6d 3e
       0.2841933 0.34143087 0.3953077 0.23238948
000160 e7 f6 c2 3e 30 d4 a0 3e 1d 68 a8 3e 75 91 46 be
       0.38078997 0.31411886 0.32891932 -0.19391425
000170 fd 81 75 bc f3 68 18 3d 9d 14 07 be 10 18 06 be
       -0.014984605 0.037209462 -0.13191457 -0.13095117
000180 21 d9 a4 3d 6b 3a ed 3c fd 52 e8 3d bc 85 b7 3c
       0.080492266 0.02895852 0.11343954 0.022402637
000190 81 76 c3 bd ae 20 94 bd 75 da e8 bd 78 d4 b7 3d
       -0.09544087 -0.07232796 -0.11369792 0.08976072
0001a0 07 f6 a6 bc 3d 4d b9 3d a9 56 15 3e 1d 20 8e bb
       -0.020380987 0.09047935 0.1458384 -0.0043373243
0001b0 5e 30 0c 3e 6b 71 d7 3d 4c 80 b4 3c ad 2d 8b 3d
       0.13690326 0.1051968 0.022033833 0.06795821
0001c0 0c 45 2d 3d 3c 52 88 bd 76 d7 15 3d 98 e4 00 bd
       0.042302176 -0.0665631 0.036582433 -0.031468004
0001d0 9f 10 d9 3d 9b de 16 be 0f 92 cb bd e9 cd 1a 3e
       0.10598873 -0.14733355 -0.09939968 0.15117611
0001e0 bc 43 56 bd a9 ee 8c 3e e0 a2 10 3d af 4e 36 3e
       -0.05231069 0.27525833 0.03531158 0.17803453
0001f0 09 e2 44 3e 58 2a 82 3e a9 a2 4e 3e 20 5f e3 3a
       0.1922685 0.2542293 0.20179237 0.0017347075
000200 f7 3d 70 3e 17 ba 61 3e d7 8e e1 3e 55 66 be 3e
       0.23461138 0.22043644 0.4405429 0.37187448
000210 13 b5 cc 3e 28 3b cc bd 2b 7b 45 bd 60 3e 82 bc
       0.399819 -0.09972221 -0.048213165 -0.015898883
000220 36 23 16 be 8b 5d 06 be 5b 0c db bc 12 fd a8 bd
       -0.1466187 -0.13121621 -0.02673929 -0.08251394
000230 3c 52 34 be d5 f1 52 bd 9b aa 15 be 70 3f a2 bc
       -0.17609495 -0.05150016 -0.14615862 -0.01980564
000240 c3 84 eb bd 1d cd f3 bd e4 84 3a bd 2e a1 c7 bd
       -0.11499932 -0.11904357 -0.04553689 -0.097475395
000250 98 7f 6f 3d 41 4b 10 bd 6c 38 60 3c fa 56 39 bd
       0.058471292 -0.035228018 0.013685327 -0.045248963
000260 c1 de eb bd 75 3a 13 be a5 91 e6 3e f3 89 29 3e
       -0.11517096 -0.14377768 0.45032993 0.1655653
000270 b1 06 b2 3e 82 ec 8f 3e dc fa 81 3d a4 b2 61 3e
       0.3477073 0.2811013 0.06346676 0.22040802
000280 a6 db 2c 3e 26 70 a0 3d 48 6c c4 3e 03 2c 10 3e
       0.16880664 0.078338906 0.38363862 0.14079289
000290 ab 62 17 3e 57 73 28 3e d5 bf 42 3e 2a d1 8d 3e
       0.14783733 0.16450249 0.1901849 0.27698642
0002a0 11 ef 26 3e 87 7c 05 3e bb 13 73 3d 8f 6c 78 3d
       0.16302134 0.13035785 0.05934499 0.060650405
0002b0 cd b0 84 3b c5 32 e3 bd b9 84 d1 3d c8 cb 67 bf
       0.0040493966 -0.11093668 0.10230393 -0.9054532
0002c0 64 d1 75 bf c8 3a 6a bf 26 6e 06 bf 7d 28 cf be
       -0.9602263 -0.91495943 -0.52511823 -0.40460578
0002d0 8d 7f 0b be 90 0c 8a be c6 9c 8f bd 7b 86 2d be
       -0.13622876 -0.2696271 -0.07012324 -0.16945831
0002e0 d1 7f b5 be b6 50 a0 be ed ac 7c be ae af d8 be
       -0.3544908 -0.31311578 -0.24675341 -0.42321533
0002f0 ac 1a a3 be 5c 73 98 3d f0 8e 68 be d5 dd 92 be
       -0.31856287 0.07443878 -0.22710776 -0.2868487
000300 38 8a 82 be 00 15 0f be 1f 24 ac be 47 f9 85 be
       -0.25496078 -0.13972855 -0.33621308 -0.26166746
000310 4f 7e a1 be c4 c9 aa be bb cd 89 bc b1 9a 31 be
       -0.31541678 -0.3335706 -0.016821733 -0.17344166
000320 a1 2a 94 bd 88 7a 91 bc bb c1 6a 3e 04 0f 72 ba
       -0.07234693 -0.017758623 0.22925465 -0.0009233805
000330 b7 ae 80 3d 51 98 8e bd 0b f3 0e be 1a 42 79 bd
       0.06283324 -0.06962646 -0.13959901 -0.060854055
000340 16 6f c6 bc b9 2a be 3d eb 71 41 be a1 b4 08 be
       -0.024222892 0.092854924 -0.18891113 -0.13350154
000350 d3 66 03 3c a9 03 bd 3e 61 8c db 3e 38 c3 bc 3e
       0.008020121 0.36916855 0.42880538 0.3686769
000360 ef 03 4b 3e ca 1a 83 bd 79 b6 d5 bc 05 7a 4c be
       0.1982572 -0.06401594 -0.026087986 -0.19968422
000370 d4 ca 2c be e7 bf 17 be 68 d5 1a be cf eb 25 bd
       -0.16874248 -0.14819299 -0.1512047 -0.040508088
000380 34 a3 16 bf 33 be 04 bf 35 bd 9a be f0 d2 4b be
       -0.5884278 -0.5185272 -0.30222479 -0.19904685
000390 65 14 89 be 0f a8 0c be ce 1d ab 3d 26 e3 72 bb
       -0.26773372 -0.13735984 0.08355294 -0.003706166
0003a0 71 a1 a4 3d 2d 4f e9 bd 72 ef 9b be 48 76 c2 be
       0.08038605 -0.11392055 -0.3045612 -0.37980866
0003b0 27 11 dd be 73 83 96 be 2c ba 13 3e 0a 58 30 3e
       -0.4317715 -0.29397163 0.14426488 0.17221084
0003c0 a1 cd 5c bd 2d 80 13 3d f8 f3 02 3e 84 f1 c7 3d
       -0.05390704 0.03601091 0.12788379 0.09762862
0003d0 29 8c 80 3e e4 17 fe 3d 8e 44 4d 3e a5 33 71 3e
       0.25106934 0.124069005 0.20045683 0.23554857
0003e0 ab cf b7 bd ff db c3 3d 63 59 2b 3d 41 e6 87 3d
       -0.089751564 0.09563445 0.041833293 0.06635714
0003f0 2a 6d 47 3e f5 42 81 3e 90 8e 1a 3e aa f4 aa 3d
       0.19475237 0.25246397 0.15093446 0.08347447

ms1.branches.1.0.bias f4 [32]
000000 96 ef 27 bd dd be 4a bd f6 28 23 be 8f fb 35 bd
       -0.04099997 -0.049498428 -0.15933594 -0.044429358
000010 57 3e 41 3c 87 c3 84 bc 81 48 7b be 05 54 13 bd
       0.011794648 -0.016206516 -0.24539377 -0.0359688
000020 14 19 8a 3a bf e3 1d 3b 43 94 d2 3b c9 31 f5 bb
       0.0010536038 0.0024092046 0.0064263656 -0.0074827415
000030 b5 21 3d 3c a0 ed 49 bc ef c5 1c bb d4 dc 2e be
       0.011543681 -0.012324721 -0.0023921689 -0.17076427
000040 b1 90 8f bd 92 d0 05 bb c6 55 80 bb 59 0e a7 3a
       -0.070100196 -0.0020418507 -0.003916475 0.0012745365
000050 98 e1 bd bd 63 0a 88 ba 0a 5a 4b 3d 2b d1 89 bb
       -0.09271544 -0.0010379072 0.049646415 -0.004205843
000060 9b cb 30 bb be 5b 23 bc c9 a3 0d be 0b 19 0f 3c
       -0.0026976827 -0.0099706035 -0.1383201 0.008733998
000070 73 92 7d 3c 41 08 de 3b 56 a7 8e bc 71 c9 33 3d
       0.015476811 0.0067758863 -0.017413776 0.04389328

ms1.branches.2.0.weight f4 [32, 6, 15]
000000 ab 33 41 be 8a 10 6d be e1 30 5f be db f8 17 be
       -0.18867366 -0.2315084 -0.2179599 -0.14841025
000010 dc 7e d0 bd eb 55 cc bc 6a ec 17 3e c7 bf b0 3d
       -0.101804465 -0.024943313 0.14836279 0.086303286
000020 1b 5a ee 3c c7 e6 f9 3d 34 99 e8 3d b9 e4 40 3d
       0.0290957 0.122022204 0.11357346 0.047093127
000030 38 91 8b bd e7 82 74 bd 3c e9 9d bc 38 78 80 3e
       -0.06814808 -0.05969515 -0.019276254 0.2509172
000040 f3 8c 1a 3e ae 68 36 3e 73 c6 af 3e b5 ae 81 3e
       0.1509283 0.1781337 0.34331092 0.25328603
000050 7c 03 90 3e af b5 72 3e 8f 8f 0d 3e 1c 50 0d 3e
       0.28127658 0.2370212 0.13824295 0.1380009
000060 f0 e2 30 3d 04 75 2d 3e 7a 99 8b 3d 3f 54 f3 3c
       0.043185174 0.16939169 0.06816383 0.029703258
000070 7f 97 93 bd de 92 76 3e 89 35 9a be b8 41 ba be
       -0.0720663 0.24079463 -0.3011897 -0.36378264
000080 2a 68 6d be 14 37 99 be d3 7b af be d5 05 10 be
       -0.23184267 -0.29924834 -0.34274158 -0.14064725
000090 d7 50 5c be eb 67 c7 bd 62 0c 35 be 64 60 da bd
       -0.21515213 -0.09736618 -0.17680505 -0.10662916
0000a0 3d 8a 79 bd 68 8a 14 be 39 56 10 be 70 de 1d be
       -0.06092285 -0.14505923 -0.14095391 -0.15416884
0000b0 d2 dc b2 be 3c 64 ae 3c 5e 0c 83 bc 41 c5 ce bc
       -0.34934098 0.02128803 -0.015997108 -0.025240542
0000c0 b8 7c 9c bd e9 06 cc 3c 99 78 ae 3d 8e 6a 63 3d
       -0.07640976 0.024905639 0.08519096 0.05552154
0000d0 35 f5 06 bc 35 ac 0e b8 4e ab d0 3d a6 72 64 3c
       -0.008237173 -3.401582e-05 0.10188924 0.01394335
0000e0 10 34 15 be 8d 23 09 be 63 a8 53 bd 5b fe 00 bd
       -0.14570642 -0.13392468 -0.051674258 -0.031492572
0000f0 25 5c 90 3e 71 65 87 3e a1 be 66 3e 53 f6 fb 3d
       0.281953 0.2644458 0.22533657 0.12302842
000100 48 03 1f 3e 1f e9 05 3d 27 07 d3 3d f3 d6 a6 3d
       0.15528595 0.032693025 0.103040986 0.08146467
000110 74 95 e6 bd a1 df df bd 66 c1 03 bd 99 18 77 3b
       -0.11258975 -0.10931326 -0.03216686 0.003770387
000120 52 74 4e bd b3 87 56 be 8c 00 07 be fc e2 cf 3d
       -0.0504039 -0.20950203 -0.13183802 0.10150716
000130 93 e4 88 3d 72 e7 fc 3d 86 bc 01 3e 9a 1d 14 3e
       0.06684222 0.12348832 0.12669572 0.14464417
000140 c9 30 07 3d 60 af 0e 3d ee c8 d1 bd 18 b5 f7 bd
       0.03300551 0.03483522 -0.102434024 -0.12095088
000150 e8 27 5a be c6 01 87 be da 64 29 be 6a a1 95 be
       -0.21304286 -0.2636854 -0.16542378 -0.29224712
000160 18 01 fa bd 4a 4b 8a be 7e 8b 00 bf 39 72 44 be
       -0.1220724 -0.27010566 -0.5021285 -0.19184197
000170 e8 a1 2f bd bb 6c 0b bd 65 e1 c6 3c ad ad e1 bd
       -0.042879015 -0.03403924 0.024277398 -0.11019454
000180 74 92 0f be 99 83 d6 bd 42 0e e6 bd ce 3d ad be
       -0.14020711 -0.10474319 -0.11233188 -0.33836216
000190 aa f2 84 be ea 31 92 be a8 75 a0 be fa ad a8 be
       -0.25966388 -0.28553706 -0.31339765 -0.32945234
0001a0 4f 59 72 be 18 32 b7 3e bd 21 5d 3e 46 11 91 3e
       -0.23666881 0.35780406 0.21594901 0.2833349
0001b0 d5 3c 08 bd d9 06 fb bd 68 1e 7f bd 83 e1 a4 bd
       -0.03326114 -0.122571655 -0.062284857 -0.080508254
0001c0 19 6a a8 be 10 81 00 bf 5b 43 c4 be b2 99 1a bf
       -0.32893446 -0.50196934 -0.38332638 -0.6039077
0001d0 84 e9 f2 be 57 91 0a bf 1c dc ca be 23 c9 22 be
       -0.47443783 -0.5412802 -0.39621055 -0.1589704
0001e0 a0 95 14 3d 74 90 38 3e b0 62 ac 3d c9 54 fb 3d
       0.036275506 0.18023854 0.08417261 0.12272031
0001f0 a3 6f 12 3e eb 33 a2 3d 5d 7d d6 3d e4 91 78 3e
       0.14300399 0.07920059 0.1047313 0.24274403
000200 54 dc 66 3e 3e 28 4f 3e 1e 44 8a 3e 9d 1e c2 3e
       0.22544986 0.20230195 0.27005094 0.3791398
000210 cd c7 90 3e bb 1a 9b 3e 64 f5 8b 3e ff a0 dc 3d
       0.28277436 0.3029383 0.27335656 0.10772895
000220 8d 47 ee 3d 84 58 ac 3d 1a 5d 79 3d 95 fb 26 3e
       0.11634741 0.084153205 0.060879804 0.16306908
000230 1b 02 d3 3d 71 3c 5b 3c 44 ec 8b bd b4 0c 85 3c
       0.10303136 0.01338111 -0.068321735 0.016241409
000240 99 b0 a7 bd ef e6 4c be 9c 3e 86 be eb b7 8d bd
       -0.0818798 -0.20009969 -0.26219642 -0.06919845
000250 bd 2a 90 be f9 7c 2b be ff 8b 02 bd b2 88 fb 3b
       -0.28157607 -0.16746892 -0.031871792 0.0076762075
000260 b9 a8 47 3e 33 c4 ad 3d 15 fd ae bd 16 7f 4f 3d
       0.19497956 0.08484688 -0.08544365 0.050658308
000270 e1 a4 56 bc e5 34 b9 3d 7d 68 a6 3d e4 12 42 be
       -0.013100834 0.09043292 0.08125398 -0.18952519
000280 78 5e c8 bd f2 47 88 be 2d 0e 66 bd 7a 2f 14 be
       -0.097836435 -0.2661739 -0.056165863 -0.14471236
000290 1f b3 68 bc b1 4a 66 3d 5b b5 df bc 0c 5d ec bc
       -0.014202862 0.056223575 -0.027308157 -0.028852962
0002a0 c1 ec ba bd a1 0f 6b 3d 22 16 8f 3d 78 09 84 3d
       -0.091271885 0.05738795 0.069866434 0.064471185
0002b0 59 1c 10 bb c4 61 ce 3d e1 f5 0e 3d c3 8c d0 3d
       -0.0021989553 0.10077241 0.034902457 0.10183098
0002c0 6e 84 6a 3d af 2b b6 3d ad fb de bd e7 cd a4 bc
       0.0572552 0.08895051 -0.10887847 -0.020117713
0002d0 2c 9f 03 be c7 6d 05 3d ae 08 f1 3d fd ff a6 3d
       -0.12853688 0.032575395 0.11769234 0.08154295
0002e0 a3 30 54 3d 25 d0 8c 3d d3 09 18 3c f6 25 8a bd
       0.051804196 0.06875638 0.009279686 -0.06745522
0002f0 3d 1f 42 be e6 86 0d bc 7c 9c e2 3c c1 a7 2d bd
       -0.18957229 -0.008638119 0.027662508 -0.04239631
000300 08 62 18 bc d9 bd c7 bc a6 7c 5e bd 3d 39 93 3e
       -0.009300716 -0.024382519 -0.054318093 0.28754607
000310 7c 12 c7 3e 49 63 39 3e 57 4f 91 bd ac 9b 81 be
       0.3888129 0.1810428 -0.07095211 -0.2531408
000320 bc 28 a1 be 79 ef a2 be 31 fb 85 be d8 d9 4d be
       -0.3147639 -0.31823328 -0.26168206 -0.20102632
000330 7f 31 34 bd f5 a3 89 3d 66 ac e3 bd 58 dc f0 bd
       -0.043992516 0.067207254 -0.11116867 -0.11760777
000340 25 5f d4 bd 9a 18 2b be 8c e0 1d 3e 7c 71 52 3e
       -0.1036971 -0.16708604 0.15417689 0.20551103
000350 eb d6 2f 3e 18 74 41 3e f0 33 4b 3e 3e fa 3d 3e
       0.17171828 0.18891943 0.19844031 0.18552491
000360 8c cc 16 3e 72 cd 50 3e a1 91 f0 3c 7c cd 04 3b
       0.14726466 0.20390871 0.029366316 0.002026408
000370 49 42 a4 3d d7 7d 02 be 7e 9f db bd 8a 91 83 be
       0.080204554 -0.12743317 -0.1072378 -0.25696975
000380 f7 f0 63 be a9 b1 2f 3e 01 73 b1 3e ac fe be 3e
       -0.2225989 0.17157616 0.34658054 0.37303674
000390 f8 1e 4a 3e 8e 24 1c 3e 1e ff 17 3e f0 b7 f1 3d
       0.19738376 0.1524832 0.14843413 0.118026614
0003a0 59 2f de 3d ed 3a 85 3e d2 4e 3b 3e e8 04 01 3e
       0.108488746 0.2602152 0.18291786 0.12599528
0003b0 71 70 a8 3d 88 24 8e 3d 0b 64 3b 3c ef 2e f8 3a
       0.082245715 0.069405615 0.011437426 0.0018934886
0003c0 94 43 3b bd 3f 65 12 bd 0b 31 34 bd cc 3a 81 bd
       -0.045718744 -0.035741087 -0.043992084 -0.06310043
0003d0 26 93 a0 bd 4b 68 cd bc 09 f5 15 3e 9b 9c b1 bd
       -0.07840566 -0.025074145 0.14644255 -0.08672448
0003e0 62 02 06 be 4f 2d 96 be ea 79 93 be 16 94 4e be
       -0.13086846 -0.29331443 -0.2880395 -0.20173678
0003f0 6a 5f 4c 3d fd a1 89 3e 34 3d 97 3e f3 db 8f 3e
       0.04989568 0.268814 0.29538882 0.28097495

ms1.branches.2.0.bias f4 [32]
000000 f1 48 15 3d 14 4b d3 3c cc 97 42 3d fa d5 53 3a
       0.036446515 0.025792636 0.047508046 0.0008080896
000010 1c 05 20 3c 08 11 4e be 71 7b ea bb 44 76 88 bb
       0.009766843 -0.20123684 -0.0071558286 -0.004164489
000020 aa 4c 38 bb 24 fd 3d be 91 4e 08 bd 5b f7 bc bb
       -0.0028121867 -0.18553597 -0.03327805 -0.0057667918
000030 24 88 bf 3c ba 67 44 bc ad 50 95 bc 71 75 33 3a
       0.023380347 -0.011987621 -0.018226946 0.0006845808
000040 46 92 f1 bb 87 1b 58 be bf 5b 4f bc 1e 90 ce bb
       -0.0073721735 -0.21104251 -0.012656151 -0.006303801
000050 e9 cb 45 bb d2 9b ad bb 99 d6 01 bc f0 09 2f 3d
       -0.0030181354 -0.0052981162 -0.007924699 0.042734087
000060 8e 19 8c bc fb 14 60 bb 66 c4 1e bc e1 d9 7a bd
       -0.01710203 -0.0034192193 -0.00969038 -0.06124294
000070 d2 ef 25 bb ab be 32 be 4a 10 5a bb 1a d6 e4 bb
       -0.0025319946 -0.17455547 -0.003327387 -0.0069835307

conv2.0.weight f4 [128, 96, 5]
000000 2b 04 db 3c 34 e4 1d 3d 06 dd 47 bd 7a ea 06 3d
       0.026735386 0.03854771 -0.04879477 0.032938458
000010 e6 5f 91 bc 4b 42 28 bd 8d 46 e0 bb e4 0d 87 bc
       -0.017745923 -0.041078847 -0.006844348 -0.016486116
000020 91 b9 bb bc f3 b0 e0 bd b5 db f9 bd 3c d1 ff bd
       -0.022915633 -0.109712504 -0.12200109 -0.1249108
000030 20 24 2e be ea bf 3a be a2 9d 09 be be 13 44 bc
       -0.17005968 -0.18237272 -0.13439038 -0.0119675975
000040 a3 01 e6 3c 18 32 90 3c 28 bc 27 3d c4 c1 00 bd
       0.028076952 0.017602012 0.040950924 -0.03143479
000050 08 cb 6e ba 55 a7 4f bd 43 41 41 bd 8b 8b 3c bc
       -0.00091092335 -0.05069669 -0.04718138 -0.011507879
000060 d5 d7 70 bc 19 1d 46 bd fb 26 aa bd e6 27 c4 bd
       -0.014699896 -0.048367593 -0.08308216 -0.095779225
000070 f9 e4 8d bd 46 86 37 bd 32 e8 a1 3c 2a ab 05 bc
       -0.06928439 -0.044805788 0.01976404 -0.0081584845
000080 ba cf 95 bc 23 20 80 bc a8 7f 39 bd a8 69 ba 3d
       -0.018287528 -0.015640324 -0.045287758 0.091021836
000090 f1 b4 bc 3d fa 17 91 3d f3 d4 23 3d 89 65 09 3b
       0.09214199 0.07084651 0.039998006 0.002096506
0000a0 ba 35 13 3d 07 d1 10 bc 7a 7e 72 bd b5 04 de 3b
       0.03593991 -0.0088388985 -0.05920265 0.0067754635
0000b0 8d 6c d2 bd 08 35 4d 3c 7c a3 15 3c cf 00 0d 3d
       -0.10274611 0.012524851 0.009133216 0.0344246
0000c0 99 be 92 3d 40 7a 58 3d 1a d3 2c 3d 80 f6 07 bc
       0.0716526 0.05285096 0.04219351 -0.008298516
0000d0 00 40 86 3b 34 0b 8c 3d ff c4 18 3a d2 bc 78 bb
       0.004096985 0.06838074 0.00058276945 -0.0037954343
0000e0 c0 10 14 bd 4d 35 96 bd e4 6b 4a bd 2f 7e 5f bd
       -0.036148787 -0.07334385 -0.0494193 -0.054563697
0000f0 1d e6 43 bd 30 59 49 bc 61 ad 47 bd 72 ee 98 3c
       -0.047826875 -0.01228933 -0.04874933 0.018668387
000100 f4 e9 84 bd ba e0 2b be 65 dd 03 be 43 ce ba bd
       -0.064899355 -0.16784945 -0.12877424 -0.091213726
000110 28 ce 1a be 0d c6 47 be e8 82 9f bc 60 86 cf 3b
       -0.15117705 -0.19509144 -0.0194716 0.0063331574
000120 02 86 87 3c eb f1 45 3d 21 0f f9 3c 4e 4a ac 3c
       0.016543392 0.048326414 0.030402722 0.021031525
000130 26 b6 f2 3c c4 e6 30 3c 09 e9 e9 3c ab 81 a9 3b
       0.02962787 0.010797206 0.028553503 0.0051729283
000140 f0 9d 06 3d d2 be a1 ba c9 30 68 3c d3 2d 94 bb
       0.032865465 -0.0012340194 0.014171788 -0.0045220642
000150 3a 65 22 3d 25 69 a4 3b c7 b4 7b 3b d5 61 13 bc
       0.03964732 0.005017417 0.0038407312 -0.008995493
000160 8c ab 20 3c b2 d9 b5 3c 5f 0c 43 bd 64 b4 94 bd
       0.009806525 0.022198532 -0.04761922 -0.07260969
000170 68 7a 64 bd af bf 8a bd 87 2f bf bd 43 12 5a 3c
       -0.0557808 -0.06774842 -0.09335237 0.013310018
000180 93 30 6b bc bf ef 71 bc 29 1e 4d 3d 08 0f 09 3d
       -0.014354843 -0.014766633 0.05007759 0.0334616
000190 7b ed 90 3d 20 0f 65 3d c0 cb 98 3b be 01 53 3c
       0.07076546 0.055922627 0.004662961 0.012878833
0001a0 9b 09 80 3c 74 22 4a bd 8b 96 d0 bb 00 56 c6 3b
       0.01562958 -0.049349263 -0.0063656024 0.0060527325
0001b0 c1 fc 99 3c 9d 3a 2b bd 1a 54 84 bc 7b 06 24 3c
       0.01879728 -0.041803945 -0.016153384 0.010011311
0001c0 32 4e 2f bd 9b 38 d9 bc ef 11 bf 3c a0 25 4f bd
       -0.042799182 -0.02651625 0.023323981 -0.05057299
0001d0 70 df 9e bc 5c a8 93 3c a7 c1 c7 bc a6 3a 22 bd
       -0.019393653 0.018024616 -0.024384333 -0.039606713
0001e0 ce c4 1a 3d 50 ab 05 3d 18 e5 f5 bc 7b 83 07 bd
       0.037785344 0.03263408 -0.030016467 -0.033084374
0001f0 05 d8 0b bb 60 4d 6d bd fe b7 45 bd 20 52 1d bd
       -0.0021338474 -0.05793512 -0.04827117 -0.0384084
000200 f6 13 9e bd 73 88 8f bc ee 52 31 bd 1f 94 50 bd
       -0.07718651 -0.017521119 -0.04329198 -0.05092251
000210 c8 6a b7 bc 56 bb 71 3c de e2 a9 bc 60 05 bb bd
       -0.022389784 0.014754137 -0.020738062 -0.091318846
000220 3d bc f2 bd 06 8e 70 bd 84 bd bc 3b 50 2b d9 bc
       -0.1185231 -0.058729194 0.0057598967 -0.02650991
000230 71 41 4a 3c e9 cf 47 bd 94 be e2 bc 41 80 8a 3c
       0.012344704 -0.048782263 -0.027678765 0.01690686
000240 d4 02 8e bc 53 1f b0 3d d1 af de 3d 1e d0 a2 3c
       -0.017335333 0.085997246 0.10873378 0.019874629
000250 34 fe ae 3b 4d 0d 12 3d 60 96 b7 3d 8b 6b 35 3d
       0.005340362 0.035657216 0.08964229 0.044292014
000260 69 24 75 3d 6c d4 b2 3c 0f 91 b7 3c 3e b3 21 3d
       0.059849177 0.021829806 0.022408037 0.03947758
000270 73 27 96 3c 9b be 99 3d 2f eb 06 3b 96 be 6a bc
       0.018329358 0.07507058 0.0020586958 -0.014327666
000280 b8 63 d2 bc 87 f2 ac 3c 6c 32 d9 bc f9 f5 8c bc
       -0.025682315 0.02111174 -0.0265133 -0.017207133
000290 a0 72 91 bd 5e df 39 3d 79 6f 8d 3c 48 fd c9 3c
       -0.07101941 0.045379035 0.017265068 0.024656907
0002a0 56 7d 5a 3d 00 68 4d 3c d2 a3 3c bd 6b e7 5d bd
       0.053342186 0.012537003 -0.04605467 -0.054175775
0002b0 61 4b 81 bd b5 6c 04 be cc 0c 77 bd c4 d7 fd 3c
       -0.063132055 -0.12932093 -0.06031494 0.030986674
0002c0 8a c7 28 bc 66 ea fc 3b 54 aa 4e 3b 14 b7 75 3d
       -0.01030148 0.007718372 0.003153463 0.05998905
0002d0 4e 1d 00 bd f6 39 e5 3b bd 5a 3b 3d 04 aa b1 3b
       -0.031277947 0.006995435 0.04574083 0.005421879
0002e0 6c 02 5c 3c d1 4f 59 bc f0 76 40 3b 63 db ca 3b
       0.013428312 -0.013263659 0.0029367767 0.0061907037
0002f0 ac f8 5c bc 97 b8 71 bd 46 b7 0b bc 8b be cc bc
       -0.013487022 -0.05901393 -0.0085275825 -0.024993202
000300 37 d0 b1 bd 82 6e ce bd 6b 91 14 be ec e0 92 3c
       -0.08682292 -0.100796714 -0.14508598 0.017929517
000310 6a bc 28 3c d5 3a 7b 3d b8 e4 ef 3b 09 29 8a bc
       0.010298828 0.061335403 0.0073209666 -0.01686527
000320 f0 d4 81 3d c1 66 96 3d 97 9b 4d 3d 4c 16 44 3c
       0.06339443 0.073438175 0.05019721 0.011968207
000330 1d 6e 15 3d f3 c0 3c bc 65 be 0a bd 28 4a 5a bc
       0.036481965 -0.011520612 -0.03387298 -0.013323344
000340 50 51 fe 3c d5 0a 04 3d 23 08 3f 3d 6d dc 84 ba
       0.031044632 0.032236893 0.04663862 -0.0010136493
000350 e6 0b e2 bb 4a 48 82 bc c1 d7 94 bd ac a8 6d 3d
       -0.006898391 -0.01590361 -0.07267714 0.058022186
000360 11 12 8d 3d 7c 91 b5 3d 8b 21 7b 3d 1c 0a 9c 3c
       0.068882115 0.088656396 0.061311286 0.01904779
000370 5c 1a f5 bc 0d 89 01 3c 86 e3 fe bb a7 54 d6 bc
       -0.029919796 0.007906211 -0.0077785878 -0.026163412
000380 c5 d6 ff bc c5 28 21 3e f1 2f fb 3d 69 6a e3 3d
       -0.03123034 0.15738209 0.122650035 0.111042805
000390 eb ee 1d 3e 08 e8 03 3e 23 4f 89 3c 49 14 ec 3b
       0.15423171 0.12881482 0.016761368 0.0072045666
0003a0 e4 a3 52 3c 7c a5 1d 3d b9 fd c3 3c a7 89 0a be
       0.012856457 0.038487896 0.023924695 -0.13529073
0003b0 d8 9a a3 bd b7 2b b1 bd 31 f0 4e be e3 07 26 be
       -0.079885185 -0.08650916 -0.20208813 -0.16213946
0003c0 4a 72 2e 3d 50 03 b3 bd f8 a1 87 bd 08 a5 04 bd
       0.042589463 -0.08740866 -0.0662269 -0.03238395
0003d0 70 ad 93 bc 82 bb f7 3c 7d c2 25 bd e4 f0 e5 bc
       -0.018027037 0.030240778 -0.04046868 -0.028068967
0003e0 c5 ff 08 3b 31 4a ec bb 22 39 b0 3c 4b 0e dd 3c
       0.0020904404 -0.0072109927 0.021511618 0.026984354
0003f0 7f 60 69 3d de aa 44 bc 25 14 b4 bb 73 5d ac 3c
       0.05697679 -0.012003629 -0.0054955655 0.021040654

conv2.0.bias f4 [128]
000000 fc cf a4 bc 81 ce 50 bd cf cd 5e be bf b1 7a be
       -0.020118706 -0.050978187 -0.21758197 -0.24481867
000010 5c d0 8a 3c 77 84 49 3a 7a e5 d0 3c 6d ef 3e bb
       0.016945057 0.00076872803 0.025500048 -0.0029134408
000020 af 8f 64 be b0 81 4b 3d 9b 72 e6 3c ba 86 0d 3c
       -0.22320436 0.049684227 0.02813082 0.008638078
000030 1e 67 ea bc 9a e2 3b be 89 1f b9 3d 71 5b 99 bb
       -0.028613623 -0.1834816 0.09039218 -0.00468009
000040 f0 84 62 be 6c 67 70 be 98 fc f5 bc ff af a3 3b
       -0.22121024 -0.23476952 -0.030027673 0.0049953456
000050 ba 70 e7 bd d1 39 a0 be 10 8f a2 3c 79 f8 39 be
       -0.11300798 -0.3129411 0.019843608 -0.18161191
000060 0f 83 23 be a4 ee 04 3c 01 34 bb bb 04 84 1c be
       -0.15967964 0.008113537 -0.0057129865 -0.15284735
000070 a5 d9 5f bd f2 95 2b be e9 f3 56 bc cf dc 31 be
       -0.05465092 -0.16756418 -0.013119676 -0.17369388
000080 17 d7 93 3d dd 1c 57 be 64 20 f0 3c 1e b3 7c ba
       0.072187595 -0.21007104 0.02931232 -0.00096397277
000090 65 90 9e 3c a1 5b 99 3d f3 9f c4 bc bd ee 11 be
       0.019355962 0.0748818 -0.024002051 -0.14251228
0000a0 1d 9c 46 39 33 79 48 3d b3 52 19 bd 2c f1 06 3d
       0.00018940908 0.04894371 -0.037432384 0.032944843
0000b0 d3 fb 7d b9 ca 5d a5 bc 0e ee 01 be 7e bb b5 3c
       -0.00024221772 -0.020186324 -0.12688467 0.02218413
0000c0 7c 02 c3 3b d4 04 e1 bd 2c 42 06 bc 22 fe 67 3d
       0.005951224 -0.10987249 -0.008194488 0.056638844
0000d0 5d 90 81 be d1 5e 4c bd 0e dd b2 be 55 5b 89 be
       -0.25305453 -0.04989511 -0.34934276 -0.26827493
0000e0 59 f6 5a 3d f2 0f 58 bd 4e 25 6d be 64 4d fb 3b
       0.05345759 -0.05274958 -0.23158762 0.007669138
0000f0 06 7f 30 3c 97 38 14 be db 2b 29 be d6 c7 10 be
       0.010772472 -0.14474712 -0.16520636 -0.14138731
000100 4f ae 49 3d 15 70 2b 3d fc 66 ce 3c 6d 9b d4 b9
       0.0492385 0.041854937 0.025195591 -0.00040551592
000110 d1 09 66 be e3 a0 bb 3c 7c 25 f8 3b 77 d7 16 3d
       -0.22464682 0.022903865 0.007572828 0.036826577
000120 c5 92 22 3d 87 d9 66 3d ed 9d 00 be 6b bd 58 3d
       0.03969075 0.056359794 -0.12560244 0.052915018
000130 1a 97 7c bc e3 a1 e9 bd 4e 2b aa bb b0 aa 2a 3c
       -0.015416885 -0.114078306 -0.0051931506 0.010416672
000140 48 2b cb bd 78 0a de 3c 76 66 54 bd 88 33 04 bc
       -0.099203646 0.027104601 -0.051855527 -0.008068927
000150 ba fc e3 3c 13 62 18 bd ea 47 fb 3c 6d 78 39 bb
       0.02783047 -0.037202906 0.03067394 -0.002830054
000160 91 44 85 bc c9 1e 4d 3d 18 8d 1c 3d 9e 97 cc 3c
       -0.016268047 0.050078187 0.038220495 0.02497464
000170 17 21 8e bc d5 e3 7f 3d 2a 6f e8 3c b1 57 84 3c
       -0.017349763 0.062473137 0.02837332 0.016155096
000180 bd 58 1d 3b ae 8e 95 3c 25 5f 6e 3a ff fe 56 3d
       0.002400919 0.018256512 0.0009093157 0.052489277
000190 9c b4 7e be 08 73 19 3d 3f 13 55 be d8 bb 91 bc
       -0.24873585 0.037463218 -0.20808123 -0.017789766
0001a0 f3 d2 ab 3d 04 1a 6c be 9d 62 64 3c e4 14 19 bd
       0.08389845 -0.23056799 0.013939527 -0.03737344
0001b0 11 42 ac 3c f2 4d 79 3c df 4b 3c be 25 bc ad 3d
       0.021027597 0.0152163375 -0.18388318 0.08483151
0001c0 7d a7 c4 3b 5d 12 83 3d 69 e8 27 3c 1d b5 10 3d
       0.0060014115 0.06399987 0.010248282 0.035328973
0001d0 c0 a8 7f 3c e1 e8 b9 3c 67 76 51 3d ca f0 4a bc
       0.015604198 0.022694053 0.051138308 -0.01238651
0001e0 fb b9 0e bd 42 4b fb bd a5 ea a5 3c f1 8f 05 be
       -0.034845334 -0.12270214 0.020253489 -0.1304319
0001f0 42 c9 d4 3c 68 c1 30 bc b3 96 19 bc ae b0 b9 bd
       0.025974873 -0.010788299 -0.009374308 -0.09066902

conv2.3.weight f4 [128, 128, 3]
000000 77 9e eb bc df ca bd bc 2e 5e 07 3d 83 8a 01 3d
       -0.028762085 -0.023168026 0.0330488 0.031626236
000010 48 6d 5a 3d 29 58 03 3d 43 39 1c bd 5e 4f 97 bc
       0.053326875 0.032066498 -0.038140547 -0.018470462
000020 43 e5 0f bd 7c 6e 1f bd d8 51 a5 bc bc 0e df bc
       -0.03513075 -0.038923725 -0.020180628 -0.027228706
000030 26 71 2d 3c a8 10 11 bd b7 4c ce bb 14 a4 3b ba
       0.010586059 -0.035416275 -0.006295766 -0.00071579334
000040 cf bc 23 bd 0a 4a ea bc 59 ac 53 bd 34 a2 06 3a
       -0.039974984 -0.028599758 -0.051678035 0.00051358645
000050 12 fe 40 3c b2 e0 71 bd b2 c2 e0 bc 8e 6d b3 bc
       0.011779325 -0.059052177 -0.027436588 -0.021902826
000060 28 7c 76 bc 76 28 b3 3c ce 44 60 bd 5a 00 ee 3c
       -0.01504425 0.02186988 -0.054753117 0.029052902
000070 f7 d5 47 3c e0 50 80 bd a4 ba 84 3c de b7 9a bd
       0.012197009 -0.06265426 0.016202278 -0.07554601
000080 97 dd 14 3c b8 f3 04 bd 94 36 4e 3a d7 36 88 3b
       0.009086034 -0.03245899 0.0007866409 0.004156928
000090 29 9c 04 bd 21 7d 17 3d 30 09 09 3d 30 4c 0b bd
       -0.03237549 0.036984567 0.033456028 -0.034008205
0000a0 ab f0 44 bc 66 d2 8d bc 12 40 5e bd f5 63 2d bd
       -0.01202027 -0.01731224 -0.05426032 -0.042331655
0000b0 39 a2 34 bc 5d f8 4e bd aa a3 55 bd d0 d2 1f bb
       -0.011025005 -0.050529826 -0.052158035 -0.0024387129
0000c0 a7 cc 1d 3c 38 88 ce bb 17 56 3c bb 43 9f a0 bc
       0.009631312 -0.0063028596 -0.0028737837 -0.019607192
0000d0 81 6e 09 bd 44 9c 5f bc e6 a6 e9 bc 9d 06 36 bd
       -0.03355265 -0.0136480965 -0.028521966 -0.0444399
0000e0 7e 74 b6 bc 15 fa 71 bd fe 30 38 3c c3 22 db bc
       -0.022272345 -0.059076387 0.011242149 -0.026749974
0000f0 b0 e4 67 bd b0 c8 84 bd ff 5c 8b 3c 4e 8e 1f bb
       -0.056614578 -0.064835906 0.017012117 -0.0024346295
000100 d9 4e e0 bb 7c f2 9f bc 7c 97 fa bc fd b4 ca 3c
       -0.006845337 -0.019524805 -0.030589812 0.024744505
000110 8f 41 aa bc e5 a6 89 3c df 75 01 3b a6 f3 08 3b
       -0.020783214 0.016803214 0.0019754095 0.002089718
000120 5d 18 0c 3d 27 0d c1 bc a6 63 95 ba c8 d5 01 bb
       0.034202922 -0.023565842 -0.0011397495 -0.0019811261
000130 24 6e 57 bd 81 6d 55 bd 1b 2b 47 bc 98 e6 e9 3c
       -0.052595273 -0.052106384 -0.012156273 0.028552338
000140 2a 8b 58 bd 90 f3 b1 bc 7d 3c 1d bd 3e 0c 7b 3c
       -0.052867092 -0.021722585 -0.038387764 0.015322743
000150 50 b0 0d 3d ba 2d a3 bc 61 69 47 bd cd 00 e9 bb
       0.034591973 -0.019919265 -0.04868448 -0.007110691
000160 3b fb a5 3c 0d dc 30 3d 20 1e ed bc 41 e4 27 3c
       0.020261398 0.043178607 -0.028945029 0.010247291
000170 19 8c 2a bd 05 f2 32 3d 36 be 12 3d e9 af c7 3c
       -0.041637514 0.04368784 0.03582593 0.024375873
000180 e9 03 fe 3c d6 1e fb 3c 87 4f 3b bd d6 4b b1 3c
       0.031007724 0.030654352 -0.04573014 0.021642607
000190 87 84 3a 3c a0 8c 61 bd 88 fc c2 3b 8c 53 b6 bb
       0.011384136 -0.05506575 0.005950514 -0.005564159
0001a0 cb 30 d6 bc 1e 72 39 bb 5b 80 0b 3d 03 73 00 bd
       -0.026146313 -0.002829678 0.034057956 -0.031359684
0001b0 03 8c b4 bc 70 e8 e7 bc 6a 1d 29 3c bd 6b ba bc
       -0.022039419 -0.028309077 0.010321954 -0.022756452
0001c0 6d 9a 0b bd 84 38 06 bd c6 9b 70 bd 66 4c 13 bd
       -0.03408282 -0.03276874 -0.058742307 -0.03596153
0001d0 5b aa 7f bc 52 3a ea bc 38 84 0e 3c 8d 21 4f bd
       -0.015604581 -0.028592262 0.008698516 -0.050569106
0001e0 ee 41 a3 bc b4 e4 e8 3b 58 62 0b 3d 27 29 6e 39
       -0.019928899 0.0071073417 0.034029335 0.00022712779
0001f0 4a 56 55 bd 91 ac f3 3c 35 0f 26 bd 8e fc aa 3b
       -0.052084245 0.029745372 -0.040541846 0.005218095
000200 44 a6 90 bc 2c 65 76 bc c4 94 7d bc 59 aa 2e 3c
       -0.017657407 -0.01503877 -0.015477363 0.010660731
000210 c0 b2 25 bd 34 ff 3c 3c f3 89 a8 3b f6 4c 31 bd
       -0.040453672 0.011535455 0.005143398 -0.043286286
000220 f8 d0 21 bd 43 bf 0a bd c6 62 9a bd ee 7a 3c 3c
       -0.03950593 -0.033873808 -0.07538371 0.011503918
000230 95 63 fc bc d9 46 d1 bc 5c 83 3d bc 43 c6 fd 39
       -0.030809203 -0.025546478 -0.011566963 0.00048403637
000240 dd 5f 78 bc b5 70 b4 bc a6 f1 ff 3c 08 58 00 bd
       -0.015159574 -0.0220264 0.031243157 -0.031333953
000250 4b fe 19 3d 98 59 5d 3b 03 a8 49 3b f7 19 4e bc
       0.03759603 0.0033775326 0.0030770309 -0.012579433
000260 fe f3 e0 3b d7 ef 28 3d f3 60 25 bd 5a be 41 bd
       0.0068650236 0.041244354 -0.04037566 -0.047300674
000270 b8 4c 6b 3c 2a ad f3 3c b9 4c 3e bd 55 2b fe 3c
       0.014361553 0.029745657 -0.046459887 0.031026522
000280 81 23 a3 3c 85 4f 4e 3c 68 3a b7 bc 45 16 90 bc
       0.01991439 0.012592201 -0.022366717 -0.017588744
000290 d1 a4 85 3c 56 49 9b bc 92 53 0c bd 30 c7 ad 3c
       0.016313942 -0.018955868 -0.034259386 0.021213144
0002a0 62 7e 3c bd 3d 91 d5 3c 32 fc 9c 3c cd 51 f9 bc
       -0.046018966 0.026070232 0.019163225 -0.030434513
0002b0 45 9f 11 bd 6d b1 55 3b e8 15 c0 bc ce 12 95 bc
       -0.035552282 0.0032606975 -0.023447946 -0.018197443
0002c0 8b a0 46 3b af 9d da bc a4 27 25 bd 83 b6 06 bd
       0.0030308093 -0.026686518 -0.040321007 -0.0328889
0002d0 b2 40 31 3d 3f dc 14 3d 51 81 66 bd 41 89 90 bc
       0.04327459 0.036342856 -0.05627567 -0.017643573
0002e0 07 93 71 3c e1 79 96 3c a5 2b 53 3c be 8b 94 bc
       0.014744527 0.018368663 0.012888824 -0.01813304
0002f0 10 f9 f6 bc ad 75 bc bb 8f cf 54 bd 48 34 13 bd
       -0.03014806 -0.0057513327 -0.051955756 -0.03593853
000300 ba 99 63 38 5a f4 c7 3c ac 3f 92 bb 1e d7 0c bd
       5.4264186e-05 0.024408508 -0.0044631567 -0.03438484
000310 b6 e5 6b bb ae d6 a7 3c fb fa 27 bd 0a 70 de 3c
       -0.0035995073 0.02048811 -0.041010838 0.027153034
000320 81 75 de bc 1c 19 46 bd 59 2a 06 3d ff 97 1f 3c
       -0.02715564 -0.04836379 0.03275523 0.009740829
000330 c2 be eb 3c eb 0f 02 3d 14 20 44 bd 0a fb fe bc
       0.028777484 0.03175346 -0.047882155 -0.031125564
000340 a8 f9 3d bd 41 86 13 bd f9 d5 4d 3b 05 8a 87 3c
       -0.04638067 -0.036016706 0.0031408055 0.016545305
000350 77 0c 16 bd 8f da d9 bc 65 ee 45 3c df c9 0e bc
       -0.03663298 -0.026593475 0.0120807635 -0.008715122
000360 bc e8 42 bd e4 6f 83 bd 99 82 06 bd 90 d2 13 bb
       -0.047585234 -0.06417826 -0.03283939 -0.0022555925
000370 03 9c 92 3b 60 9a 66 bd 2a 92 30 3c 9f 00 79 bc
       0.0044741645 -0.056299567 0.010777036 -0.015197902
000380 d3 30 bb 3b f3 eb fc bc c2 98 29 bd 27 60 57 3c
       0.0057126074 -0.030874228 -0.041405447 0.013145483
000390 dd 54 34 3c ca f6 5a bd bb be 5a 3c e6 b8 47 bd
       0.011006561 -0.053458013 0.013351138 -0.048760317
0003a0 23 62 b0 3a ea ab 10 bc 40 55 0c bd 3b a1 3f bd
       0.0013456981 -0.00883005 -0.03426099 -0.04678462
0003b0 61 f9 a1 bc d5 7d 5d bc 5f a7 8e 3b d8 65 39 bc
       -0.019772233 -0.01351877 0.0043534483 -0.011315785
0003c0 ec a5 1b bd 60 2c 47 bb 89 c1 d6 bc 93 ae 73 bd
       -0.038000032 -0.003039144 -0.026215332 -0.05949266
0003d0 c9 0a 12 bd e3 da ca 3b d5 f7 fb 3c 76 5c 11 bd
       -0.035654817 0.006190644 0.030757824 -0.03548857
0003e0 b3 d1 72 bc e3 51 9a 3c 6d b5 42 bd 06 40 52 bc
       -0.014820504 0.018837875 -0.047536302 -0.012832647
0003f0 75 d9 36 3c 9a c3 26 bc ae 25 f6 3c 99 40 10 bd
       0.011160244 -0.010178471 0.030047264 -0.035217855

conv2.3.bias f4 [128]
000000 f8 1e 3e bd a9 b5 5a bd f7 ad 06 3d 21 aa 3e 3d
       -0.046416253 -0.0533959 0.03288075 0.046548966
000010 e5 b1 cf 3d 00 91 e1 3d 29 72 ca ba 6a db 51 bc
       0.101413526 0.11013985 -0.0015445399 -0.01280866
000020 9d cb 34 bd 91 ef 28 3e a0 97 b9 bc e9 ef 3e be
       -0.044139493 0.16497637 -0.022655308 -0.18646206
000030 b7 3b 42 bd 59 8b bf 3e dd 09 78 bd 2c 0a d5 3d
       -0.04742023 0.37411 -0.06055628 0.10402331
000040 f3 48 a8 bc 15 c8 4a bc 44 15 90 3d 6a 7b 3d bd
       -0.020542597 -0.012376805 0.07035306 -0.046260275
000050 a8 1f b8 3d 7f bb 9c 3e 3c 2c 61 bc 28 87 87 bd
       0.08990413 0.30611798 -0.013743456 -0.06617576
000060 f1 32 fa 3c ed ca b0 bd 30 b8 5d 3b 05 94 9f bd
       0.030541869 -0.08632455 0.0033831708 -0.07791904
000070 07 85 61 3e 3e 16 3d bd ab a6 f0 3d b1 c5 bb 3b
       0.22023402 -0.04616379 0.117505394 0.0057303538
000080 2b f1 9e bd 47 cf 89 bd 40 82 8f bd 66 05 92 3c
       -0.07760843 -0.06728988 -0.07007265 0.01782484
000090 02 43 c2 3d 16 5b 2f bc 79 89 0a bc 2a bf 82 bd
       0.09485437 -0.010702869 -0.008455628 -0.06384118
0000a0 19 56 c3 bd 51 9f 1b 3e f7 d9 98 3d e5 27 9a bd
       -0.09537906 0.15197493 0.074634485 -0.075271405
0000b0 52 f5 13 3c c3 c1 77 3d 10 8c ae 3d 01 ab 3b bc
       0.009030657 0.06048752 0.085228086 -0.011454345
0000c0 1e 62 19 3d 64 f9 01 3d d3 5b 0b bc aa f8 41 bd
       0.037447087 0.031731978 -0.008505779 -0.047356285
0000d0 46 19 26 3d 8a 3c 52 bd 4a 18 c3 bc 02 18 07 bd
       0.040551446 -0.051327266 -0.023815293 -0.03298188
0000e0 de df be bc 67 d8 a5 3d ff 0c 4b 3b b3 55 a7 3d
       -0.023300108 0.08097916 0.0030983088 0.08170643
0000f0 4c a1 2a 3c 31 0d 3f 3d ed 49 63 bc 93 67 18 bd
       0.010414433 0.04664344 -0.013872606 -0.03720815
000100 c7 a6 4e bd e9 29 a3 3e 6d 7f c6 bd da c8 16 3d
       -0.05045202 0.31867912 -0.09692273 0.03681264
000110 60 a9 28 bd bc fc 66 3a 07 f7 a2 3d 7d ef 93 3e
       -0.041177154 0.0008811464 0.07957273 0.28893653
000120 43 94 70 3b b0 23 1f 3d 20 42 ad 3e c3 4b c5 3d
       0.0036709465 0.038852394 0.33839512 0.09633591
000130 fd 6e 9a 3e ec 16 cc 3c 0a f5 a4 3d 08 85 0c be
       0.30162802 0.024913274 0.0805455 -0.13722622
000140 c9 6a 83 3d cc 3d 1a be 75 74 db bc 02 cc 6b bd
       0.06416852 -0.15062636 -0.02678893 -0.057567604
000150 ca 86 ee 3c f3 dd f6 3c a7 1b ed 3d ee 3c 4a bd
       0.029117007 0.03013513 0.1157754 -0.049374513
000160 a5 5c 64 3d f7 90 0e 3d 71 5e 33 bd f1 8d 99 bb
       0.055752415 0.034806218 -0.04379124 -0.00468611
000170 20 9c 86 bb 0f ab 18 bc c2 02 2c bd db f8 de bd
       -0.004107967 -0.009318127 -0.041994818 -0.10887309
000180 72 1f 05 be 16 07 f0 3d 39 02 d1 3c 20 b7 db 3d
       -0.13000277 0.117201015 0.025513755 0.10728288
000190 8a d1 40 bd f0 f7 9a 3d 61 9b af bd d0 06 13 3d
       -0.047074832 0.075668216 -0.08574558 0.03589517
0001a0 c1 02 c2 bb c0 02 4e bd f5 bc 03 be 82 9b db bc
       -0.0059207384 -0.05029559 -0.1286505 -0.02680755
0001b0 cb 15 06 3d 40 0c 21 be de 94 22 bd be c9 55 3d
       0.032735627 -0.15727329 -0.039692752 0.05219435
0001c0 2d 92 56 be eb a9 f2 3a 20 3f c2 3d b5 90 5c 3d
       -0.20954199 0.0018513774 0.094846964 0.05384894
0001d0 4f 0e 1c bd e1 8b 32 bd de d2 9b bd d6 4f d3 bd
       -0.038099583 -0.04359043 -0.07608579 -0.10317962
0001e0 05 3e 27 bd b1 96 b5 bc e7 f6 47 bd 84 87 0b bd
       -0.04083063 -0.022166582 -0.04881945 -0.034064785
0001f0 84 a7 c9 3d 9d 6d 59 bb 3f 3e 4e 3d f7 72 d6 bc
       0.09846404 -0.0033176907 0.05035233 -0.026177866
